best_policy_9.model (torch, 540341 bytes, 15 tensors)

conv1.weight f4 [32, 4, 3, 3]
00000000: ef62 b83d 4182 9d3b 77c3 b23d 2e61 a0bf
00000010: 7f89 9ebf 6ab9 9cbf 74de 243e 66ac cbbd
00000020: 183f 2b3d f54c 0d3b 6e1f dbbc 4050 0bbd
00000030: 3676 b63f 9f16 883f 7f8b a83f c5cf 03be
00000040: 6995 f0bd 2c72 03be 534f f2bc 9afb 0f3e
00000050: 6c12 53be 1f37 a93e 6def 373e ba2e 583e
00000060: 3fcd 1fbe 0eff aebd c567 adbe 7f9c 923c
00000070: 0866 e33d 549f d23c 6841 49bd 24ed 113d
00000080: a0cd d0bc 6ce0 dc3c 11c1 703d 8b70 7ebd
00000090: cb12 120a 2884 9ea3 d69c 5088 7ece 2212
000000a0: 857a 50aa d0d3 1799 0f1a 4588 1f5f a9aa
000000b0: c232 9931 8de2 e40d 984d 6205 58f9 d18c
000000c0: 4a22 6eae bb9c 8e1b bd4d c016 649d 5389
000000d0: b912 c304 984e 8403 18e2 c503 d18a 7501
000000e0: a8e7 eb83 22fd 1412 5359 3b80 0024 1b85
000000f0: 31a8 0403 227d 6b03 1bcd ba02 5747 1583
00000100: 5490 7083 84ed c883 9f23 0083 d43c 7c03
00000110: 4023 8603 ce5b 1803 535f 6f03 55e7 8003
00000120: 1518 15b2 d44e 34a3 eaa7 d0ad d0bb e0a0
00000130: 2c09 0eb6 54a1 2c35 b289 3bb5 1fc6 95b7
00000140: 4f07 16b8 75cf 4cb4 952e 6838 cf32 0fa9
00000150: 197a d138 fe13 06b4 df8b 9da9 7279 ffb5
00000160: 4449 c8b8 6b8a b1b7 4ee4 4d1b 86ea a517
00000170: 53b1 f799 cf01 1538 515b 311b c198 6f98
00000180: 0ede 4f2e 57a2 f7af 6853 97b2 3934 80b4
00000190: 908c fbb4 9aef 7bb4 8606 ccb4 e4d8 3eb5
000001a0: 602e c8b4 9e3f 91b4 d5df 0db5 72af 93b4
000001b0: 78b7 953f f295 0b3e 03bb 3a3f 1d00 063f
000001c0: 9d16 1d3f 352e a73e 07a1 253f eea8 8bbe
000001d0: de42 3c3e 10ec bfbe b573 fdbd 873e 49be
000001e0: d80b 5ebe 4748 bcbe f970 1ebe 033a 77be
000001f0: d23b 02bd 0f02 1fbe 0653 0fbe 72cc 56bc
00000200: ab1f 05be a746 f7be 2776 f7be a66b 353e
00000210: e0a9 9ebd dbad 923c d461 b73b b77f 963e
00000220: 6651 78bc 356f e83d 8084 8dbd ab7d f8bd
00000230: 27bb 3abc a0fb f93d cfd3 32be ff16 053d
00000240: b207 813d 2104 cd3d 9a13 6e3b e250 2cbd
00000250: cccb e3bf 815c 923b aa9f 813b 03e8 8c3c
00000260: 9b31 ae3d 84ae d73d 9be9 e13d 42dc 0d3e
00000270: a1c6 2f3d 5767 d9bf 7097 163d 5755 f4bb
00000280: 0018 d7bc 2501 423d 7e5f 1abe 25c7 2bbd
00000290: 2114 01bd 5919 45be 3315 8f3c b054 b1bd
000002a0: 9893 35bb a41f 243e 6bb7 dd3d e190 8cbd
000002b0: 339f 613d a5cb b1bd b671 d03c 73d0 223e
000002c0: 7cd8 42bd 9c8b a8bd 0fe3 8b3d 9cd9 d93c
000002d0: 0650 d087 b827 ec92 0fa8 170a 7099 c38a
000002e0: f9e6 8a99 e664 0d8d 0475 1394 87ae ec0e
000002f0: 9f29 b70b eaf3 6a91 03f8 1210 88a3 1709
00000300: 97b3 8081 2f75 5c07 5865 ac86 452f fa90
00000310: a774 150d bdcd c58d 2fb2 4202 3344 7d0f
00000320: 5f0e 8480 d58d af81 5d82 d480 f56c 0081
00000330: ae74 2600 25c5 5b00 f20c 0f81 495d e382
00000340: ebf8 d502 e804 2282 345f c182 3e4e ab82
00000350: 8d9f bf02 777d f402 9cfa f002 2c55 c182
00000360: 2879 ceb3 a1be 29b9 bd1c bd38 9a13 6b37
00000370: ca81 21b0 fb48 2733 66ae ceb0 3421 64b6
00000380: bbc0 dcb4 eb2b 97b2 cde7 9cb0 bb6f 88b0
00000390: 1025 88af e4aa 2639 4595 83b4 27d7 29b6
000003a0: 9cb8 adb4 e577 84b3 5e56 4911 defb cc9e
000003b0: fbe1 0e2b dc8e 3492 eacf 95a6 c022 89a5
000003c0: 350c 8b0f 2e73 e90f 4cb4 988c a972 8d8b
000003d0: e596 b60c 8579 268b 70d8 ac8c e1f7 6f0a
000003e0: 86f1 2d8b 1c34 908b f6d1 0d0c 8225 5589
000003f0: a889 81b8 85b0 11b9 39f5 03b8 5c1e ebb9
0.09003245 0.0048067872 0.08728688 -1.2529657 -1.238571 -1.2244084 0.16100484 -0.09944992
0.041808218 0.0021560763 -0.026748385 -0.03401208 1.4254825 1.0631903 1.3167571 -0.12872227
-0.11747248 -0.12836522 -0.02957884 0.14060822 -0.20612496 0.33049867 0.17962427 0.21111575
-0.15605639 -0.085447416 -0.33868232 0.017896889 0.11103445 0.02571074 -0.049134642 0.035626546
-0.025488675 0.026962481 0.058777872 -0.062119048 7.033179e-33 -1.7186365e-17 -6.2777083e-34 5.137271e-28
-1.8516619e-13 -7.849292e-24 -5.9313163e-34 -3.0086434e-13 4.4586566e-09 1.4106125e-30 1.0640721e-35 -3.2351617e-31
-5.414539e-11 2.3593214e-22 3.1068333e-25 -2.5472206e-33 4.5861474e-36 7.776307e-37 1.1630528e-36 4.509899e-38
-1.3865244e-36 4.7012576e-28 -5.450338e-39 -7.294677e-36 3.898439e-37 6.920394e-37 2.7447968e-37 -4.386906e-37
-7.069534e-37 -1.1809474e-36 -3.765671e-37 7.412597e-37 7.883905e-37 4.477417e-37 7.0345214e-37 7.576275e-37
-8.678417e-09 -9.774512e-18 -2.3721431e-11 -3.807136e-19 -2.1164988e-06 6.4309756e-07 -6.98633e-07 -1.7854441e-05
-3.5769594e-05 -1.9074453e-07 5.5356493e-05 -3.1796448e-14 9.988639e-05 -1.2486996e-07 -6.9964644e-14 -1.9034326e-06
-9.55039e-05 -2.11645e-05 1.7030972e-22 1.0722077e-24 -2.5610822e-23 3.5526053e-05 1.4670603e-22 -3.0967147e-24
4.7263575e-11 -4.5044388e-10 -1.7616642e-08 -2.3879855e-07 -4.6854666e-07 -2.3463363e-07 -3.8002707e-07 -7.1096133e-07
-3.7286645e-07 -2.7054642e-07 -5.285231e-07 -2.7508537e-07 1.1696615 0.13631418 0.7294161 0.5234392
0.6136263 0.3265244 0.64698833 -0.2727732 0.18384883 -0.3748479 -0.12375585 -0.19652759
-0.21684206 -0.36773893 -0.15472783 -0.24143223 -0.03179533 -0.15528129 -0.13996515 -0.013110267
-0.13000362 -0.4829609 -0.4833233 0.17716846 -0.07747245 0.017905166 0.005596379 0.29394314
-0.015156126 0.11349336 -0.06910038 -0.12133344 -0.01139716 0.12206197 -0.17463611 0.032492634
0.06300296 0.10010553 0.0036327601 -0.042069323 -1.7796569 0.0044665937 0.003955801 0.017200476
0.08505555 0.10531333 0.11030885 0.13853553 0.042914037 -1.6984662 0.036765516 -0.0074564624
-0.026256561 0.047364373 -0.1507549 -0.041937966 -0.031513337 -0.1924795 0.017466163 -0.08658731
-0.002770638 0.16027695 0.10826 -0.06863571 0.055083465 -0.0868142 0.025444847 0.1589983
-0.047569737 -0.082297534 0.06830417 0.026593022 -3.1343395e-34 -1.4903485e-27 7.301994e-33 -1.8835534e-32
-1.4362155e-23 -4.357043e-31 -7.444681e-27 5.8346555e-30 7.055166e-32 -1.8534507e-28 2.8984484e-29 1.8252856e-33
-4.7277473e-38 1.6585398e-34 -6.484812e-35 -9.8680443e-29 4.6054585e-31 -1.2190592e-30 1.4304005e-37 1.2486998e-29
-1.2127441e-38 -6.4488366e-38 -1.9515891e-38 -2.358806e-38 3.531606e-39 8.427752e-39 -2.627424e-38 -3.3408195e-37
3.144041e-37 -1.1903288e-37 -2.8413445e-37 -2.51711e-37 2.8156505e-37 3.592459e-37 3.5408673e-37 -2.8407687e-37
-9.614661e-08 -0.00016188111 9.017575e-05 1.4011655e-05 -5.87559e-10 3.8949093e-08 -1.503804e-09 -3.3993974e-06
-4.1118423e-07 -1.7598685e-08 -1.1416376e-09 -9.927058e-10 -2.476459e-10 0.00015894655 -2.450926e-07 -2.5308198e-06
-3.2358082e-07 -6.168538e-08 1.5882718e-28 -2.170351e-20 5.0762145e-13 -5.6974073e-28 -1.0395307e-15 -2.378926e-16
1.371116e-29 2.301994e-29 -2.352782e-31 -5.4483746e-32 2.8132356e-31 -3.2061858e-32 -2.663106e-31 1.1554052e-32
-3.350029e-32 -5.554519e-32 1.0925428e-31 -2.5656578e-33 -6.17684e-05 -0.00013894036 -3.1461215e-05 -0.00044845312

conv1.bias f4 [32]
00000000: 064c c2bf ab6a 5fb7 928a 93bc a498 46be
00000010: 9aa4 853f 7375 f2b4 53bf cfbc cb54 d5bd
00000020: e2fb b7be 5008 d8bd 5e39 94bf 26d5 1cbf
00000030: aeed 29be bed8 9dbf deea 87bd a5d1 90a5
00000040: 4a43 08b7 45f2 05bf e734 a3b1 37bc 86b8
00000050: 3da8 6cbe 6927 c2bf df5b 0ab1 4795 bcbf
00000060: 593b a3bf 5792 0e3f 810c 39bf 3fa8 10bf
00000070: 78ba ebbe 5df2 49b1 209b 37bf 1ef6 c6bf
-1.517945 -1.3316671e-05 -0.018010411 -0.19394165 1.0440857 -4.5161468e-07 -0.025359785 -0.104165636
-0.3593436 -0.105484605 -1.1580007 -0.6126274 -0.16594574 -1.233177 -0.06636594 -2.512208e-16
-8.121899e-06 -0.523228 -4.7499387e-09 -6.424676e-05 -0.23111053 -1.5168277 -2.0133866e-09 -1.4733056
-1.2752486 0.55692047 -0.72284704 -0.56506723 -0.46040702 -2.9387117e-09 -0.71721077 -1.5543859

conv2.weight f4 [64, 32, 3, 3]
00000000: ea4e 3db5 7bc2 68b5 76a5 7eb6 4ce9 94b3
00000010: d2bb 15b6 260e d6b7 0beb cdb0 6bad 35b5
00000020: 3a94 28b8 f8f7 9133 3742 6c33 c370 fbb8
00000030: c5cf e3b1 ef0c 8534 47eb 3eb7 466d a838
00000040: 5e06 f5b0 a258 4eb8 9db8 c693 bb40 4c99
00000050: 0fbc 211b 771c 771c 8767 f51b ee4f 1d9a
00000060: 9fd1 2893 8f57 7b1a c098 d717 e7bd 34bb
00000070: dea4 a2bb b373 bfbb 984b 40bc 97f4 68bc
00000080: 95e9 58bc d84d 7ebc 6640 a4bc fcd4 a6bc
00000090: c4e5 f8bd 0cc0 02be 80ba 08be 50cb 0bbe
000000a0: 4b9b 09be e559 02be 6dc7 07be 15f3 11be
000000b0: d129 f5bd 9c11 0db4 d046 deb5 35e0 752f
000000c0: b650 3931 4910 2e31 b7f2 2438 a72f 1c32
000000d0: 8eea 9431 30c0 b131 8ad4 0909 658c 6407
000000e0: 9d8b 0709 32bd f408 50d6 0309 8d7b 6808
000000f0: 2fea 2d89 a83e 2909 762e 6289 05c9 0ab5
00000100: c034 2739 7d70 0bb5 60f5 8d33 10dd 6b39
00000110: 9492 05b0 b210 07b4 e7dc 1fb5 12e0 f534
00000120: cc3a 5abc 4b1b 81bc a4d4 91bc f111 99bc
00000130: 6cd7 a5bc 65eb 78bc 39db a1bc 2fbf c5bc
00000140: b04c d7bc 5a91 cd89 86a5 f109 832e 840a
00000150: 11f8 c508 e28b 130b 21e4 818c 18e2 cd09
00000160: 485f 8f89 a82a 258a 9c41 b3b6 dc16 13b8
00000170: afc9 9cb8 c6c3 41b9 5f3c 45b9 4ad2 b2b9
00000180: c028 15b9 57fc 8cb9 d37f 1dba 56bc 90b8
00000190: b395 34ba 789a beba d19a 69b9 3ccc 1cba
000001a0: ef1f 05ba 210b 9fba 4d70 65ba 8148 b1ba
000001b0: e362 30b8 1eb0 25b8 8dfd 19b8 5250 13ba
000001c0: d2cb 88ba 4f25 36ba 4ad6 76ba 6943 c0ba
000001d0: c8bb 9db9 347b 01b2 8fef b0b1 77fa 50b1
000001e0: d485 39b4 c7f8 e4b3 8748 9bb5 a2c1 b1b5
000001f0: 12f6 a3b4 0f65 18b5 cf42 1709 ae2f 6189
00000200: 801e 2e09 d423 5b08 f499 3709 8117 e288
00000210: ab2f a708 a9c9 a108 941a f188 233b 223a
00000220: c2d7 5637 af58 14b4 283f 87b1 ab48 a3b2
00000230: 7e48 a02e a517 8ab8 d418 d2ae e9ae 5531
00000240: 9d7f 57b3 c202 4035 2b9b 4e32 0778 6a36
00000250: 3376 a2b1 c017 dab1 78bd 00b4 65bd af37
00000260: acac 2337 e6c5 5b8b 36fb 448a 97bf 5b8a
00000270: 403b 5d88 06c6 938c a38b 950d 470f 5b89
00000280: e543 a489 1e30 470c 1466 0180 176b 0180
00000290: f823 0100 29b4 0100 d2e1 0180 60fa 0180
000002a0: ac4f 0200 a9fe 0180 68c2 0100 4094 95af
000002b0: 5c2e bd3a 5c96 4739 e038 9738 b8dc 8e3a
000002c0: 80e9 8b32 687b 13b8 a83a 1932 c28b 75b2
000002d0: f773 6b89 c820 9e89 7c4d c909 8164 0b89
000002e0: 3f94 f688 9980 dc09 bd0f 5409 75ba 9508
000002f0: b11a 7f09 a5b8 23ab 920c 57b1 550b 3eb1
00000300: 8dbd 04ac ce21 33b1 994f 84b3 9c5c 3cae
00000310: 25b1 bfb2 0ee5 a0b2 4901 1d32 bd95 9233
00000320: 37a9 8937 471f bcb1 52c4 18b6 3143 46b1
00000330: e893 3f34 2cc4 5e33 2119 7232 2152 4ca9
00000340: 80df 77aa b57a 75ad cdb7 a5a9 0a22 16ab
00000350: d733 05b0 62dd 8aaa 8e28 ffb0 5dc4 23b3
00000360: 78ca 87ab 3db8 f0a7 276f 4ba6 9a16 a3b4
00000370: 066d 1eb5 33df 70b4 c57d c6b4 dcbb 05b3
00000380: c71d 55b3 08f9 89bc b4bc 92bc 331e 61bc
00000390: 0915 3fbc 7447 46bc ef12 9ebc c439 dabb
000003a0: cec2 10bc 2c4b 44bc 08dd dab7 ae8e 70b7
000003b0: 2d2b 19b7 f244 86b7 6724 48b8 96d4 88b6
000003c0: e24e 56b8 c85f 14b9 e771 ecb6 01e5 38ba
000003d0: 9681 3bba a8fe 90ba 40e9 24ba 7700 aaba
000003e0: 0711 dbb9 20b6 f1b9 0a8b 01bb 37ba 10bb
000003f0: cebc 2b88 0706 8e86 f1b2 4389 6c50 bd08
-7.052282e-07 -8.670974e-07 -3.794526e-06 -6.9342235e-08 -2.2312056e-06 -2.5517376e-05 -1.4982516e-09 -6.768011e-07
-4.0192368e-05 6.797194e-08 5.5008254e-08 -0.00011989616 -6.63019e-09 2.478259e-07 -1.1379662e-05 8.031218e-05
-1.7827906e-09 -4.9196773e-05 -5.016427e-27 -1.0559625e-23 1.3378373e-22 8.1762234e-22 4.0598753e-22 -3.2531406e-23
-2.1307932e-27 5.1976313e-23 1.3932609e-24 -0.002757901 -0.0049635014 -0.00584265 -0.011736773 -0.014218471
-0.013239284 -0.015521489 -0.020050239 -0.02036523 -0.12153199 -0.12768573 -0.13352394 -0.13651776
-0.13438146 -0.12729605 -0.13259669 -0.14252885 -0.119708665 -1.3138055e-07 -1.6560898e-06 2.2362275e-10
2.6966922e-09 2.532959e-09 3.9326693e-05 9.09123e-09 4.3340327e-09 5.173227e-09 1.659071e-33 1.7194072e-34
1.631568e-33 1.4729695e-33 1.586932e-33 6.9960194e-34 -2.093423e-33 2.0372096e-33 -2.7225606e-33 -5.170153e-07
0.00015946012 -5.1945227e-07 6.6104576e-08 0.00022493699 -4.859342e-10 -1.2578928e-07 -5.955357e-07 4.579784e-07
-0.013319682 -0.015760085 -0.01780159 -0.018685313 -0.020244323 -0.015192841 -0.019757854 -0.024139015
-0.026281685 -4.9488643e-33 5.8174297e-33 1.2728633e-32 1.1914826e-33 2.8416406e-32 -2.0012897e-31 4.9564572e-33
-3.45156e-33 -7.952484e-33 -5.3422536e-06 -3.506882e-05 -7.476226e-05 -0.00018478846 -0.00018809874 -0.00034107483
-0.00014224928 -0.0002689089 -0.0006008122 -6.9015354e-05 -0.0006888762 -0.0014541885 -0.00022278285 -0.0005981361
-0.0005078306 -0.0012134054 -0.0008752391 -0.0013525636 -4.2053765e-05 -3.9503087e-05 -3.671418e-05 -0.00056195736
-0.001043672 -0.00069483084 -0.0009416087 -0.0014668527 -0.00030085281 -7.536801e-09 -5.149509e-09 -3.0410356e-09
-1.7278154e-07 -1.066233e-07 -1.1569508e-06 -1.3243882e-06 -3.0540156e-07 -5.677147e-07 1.8207377e-33 -2.7105809e-33
2.095883e-33 6.594503e-34 2.2100212e-33 -1.3607406e-33 1.0062154e-33 9.737245e-34 -1.4510908e-33 0.00061886216
1.2805629e-05 -1.3815837e-07 -3.936197e-09 -1.9008743e-08 7.288835e-11 -6.584757e-05 -9.554105e-11 3.1095004e-09
-5.0174652e-08 7.1529587e-07 1.2026059e-08 3.4938582e-06 -4.7282582e-09 -6.347335e-09 -1.1989857e-07 2.094982e-05
9.75576e-06 -4.2326748e-32 -9.484304e-33 -1.05805005e-32 -6.6574416e-34 -2.2768117e-31 9.21645e-31 -2.636835e-33
-3.954541e-33 1.5344882e-31 -1.28454e-40 -1.30252e-40 1.04739e-40 1.56465e-40 -1.72845e-40 -1.81653e-40
2.12252e-40 -1.8319e-40 1.61575e-40 -2.720828e-10 0.0014433372 0.00019034132 7.210835e-05 0.001089952
1.6287913e-08 -3.5162462e-05 8.919109e-09 -1.4292654e-08 -2.8341622e-33 -3.8067944e-33 4.8461856e-33 -1.6778773e-33
-1.4840439e-33 5.3084006e-33 2.5525972e-33 9.011447e-34 3.0707059e-33 -5.816548e-13 -3.1293763e-09 -2.765508e-09
-1.886355e-12 -2.6067144e-09 -6.161208e-08 -4.2828505e-11 -2.2315882e-08 -1.8730614e-08 9.138895e-09 6.825892e-08
1.641047e-05 -5.475076e-09 -2.2764038e-06 -2.8850986e-09 1.7842069e-07 5.186682e-08 1.4091968e-08 -4.5368335e-14
-2.2015549e-13 -1.3953884e-11 -7.359356e-14 -5.3337944e-13 -4.8458787e-10 -2.466734e-13 -1.8565218e-09 -3.8129986e-08
-9.648523e-13 -6.6813133e-15 -7.058041e-16 -3.037756e-07 -5.9018237e-07 -2.2432941e-07 -3.6971883e-07 -3.1137333e-08
-4.962001e-08 -0.01684238 -0.017912246 -0.01374011 -0.01166273 -0.012101997 -0.019296138 -0.006659718
-0.008835508 -0.011980813 -2.609055e-05 -1.4338335e-05 -9.129563e-06 -1.600615e-05 -4.7717618e-05 -4.077864e-06
-5.109504e-05 -0.00014150061 -7.046608e-06 -0.0007053167 -0.00071527937 -0.0011062222 -0.00062908605 -0.0012970109
-0.0004178362 -0.00046102796 -0.0019766712 -0.002208365 -5.168038e-34 -5.342332e-35 -2.3556409e-33 1.1393931e-33

conv2.bias f4 [64]
00000000: 7753 2dbe 1271 1dbf 6c7f 17b8 0d46 e1b2
00000010: 7e9f 4ebc 6f56 e2a7 9757 0eb6 6be0 f0b7
00000020: ecb4 70bd 22cc d2bf 5b79 acbe c64f 0dbf
00000030: 7718 75b2 f606 96b5 e3fe 6ebe 22cc 30b2
00000040: 4d18 9dbc d58d f5b2 4966 8eb3 367d 60bc
00000050: f5eb b2bd 1c22 47bf c999 0cbd 2470 b5b6
00000060: b5ff c2ba 3ecc 86a5 5975 21ba 954d 5bb3
00000070: 9514 03b0 5d98 ebb1 3b14 17b4 3d38 ceb8
00000080: 1f13 08bc 7c59 c3af 601a daab a9e0 f7bd
00000090: a594 3abf 5284 53be 5393 0cbf 7e6d 1dbd
000000a0: c60b 7c3f 477d 64b6 bd90 c2b7 1396 04ba
000000b0: 7ca2 dbbf 1480 9fb9 e58b 09ad c472 0ca8
000000c0: 36b3 28bf cae3 cebf 3e18 01b9 c323 0ab5
000000d0: 74c0 0ab9 2e85 17bd 881b 7eb3 c1a0 13bb
000000e0: 94c0 8abd 0d03 efbf ddd7 0dba 91f9 05ba
000000f0: 700f 1abf 289e 2fbe 8e90 c3af de56 16bb
-0.1692637 -0.61500657 -3.6119876e-05 -2.6225303e-08 -0.012611268 -6.2821312e-15 -2.1210633e-06 -2.8714732e-05
-0.05876629 -1.6468546 -0.33686337 -0.5519985 -1.426644e-08 -1.1177897e-06 -0.23339419 -1.0290963e-08
-0.019176627 -2.8586252e-08 -6.630996e-08 -0.013701728 -0.087364115 -0.7778642 -0.03432635 -5.4072752e-06
-0.0014877232 -2.3383694e-16 -0.0006159149 -5.106047e-08 -4.768677e-10 -6.856722e-09 -1.407033e-07 -9.833321e-05
-0.00830534 -3.5533876e-10 -1.5497152e-12 -0.121033974 -0.72883064 -0.20655945 -0.549123 -0.038434498
0.98455465 -3.4047569e-06 -2.3194001e-05 -0.0005057763 -1.7158961 -0.0003042227 -7.818611e-12 -7.796447e-15
-0.65898454 -1.6163266 -0.0001231143 -5.1461046e-07 -0.000132324 -0.036992244 -5.9164023e-08 -0.0022526237
-0.067750126 -1.8672806 -0.0005410889 -0.00051107357 -0.60179806 -0.17150176 -3.5573006e-10 -0.002293996

conv3.weight f4 [128, 64, 3, 3]
00000000: 808d 0980 0e87 0289 15ec 8b2a 990b 0600
00000010: 4f81 0500 b17b e32f 8f3b 0700 b374 0100
00000020: 9567 0a00 4c06 0bbd 821d d5bc 7bdb 8cbb
00000030: e370 0c3c 3850 173d d1f4 86bb 531b 2e3d
00000040: 3d4b d7b7 0a82 e0bd a0e5 0100 e4a0 0080
00000050: 76cc 0100 d955 0200 5047 0080 1be6 0180
00000060: b1a9 0480 7849 0300 16b8 0580 441e 1d86
00000070: 9540 0300 bee0 7706 d0b1 7586 6378 fe06
00000080: 5917 fc05 f9ec de86 1b7b b505 8955 5d04
00000090: 4124 8c23 3493 4a23 049f 54a3 3e89 65a3
000000a0: 2ec3 c7a2 2628 f4a2 135b 4c23 820b 92a3
000000b0: 47cb f1a2 77dc 0280 2506 0580 53c2 0300
000000c0: f6ab 0500 dc3c 0380 90ab 0400 252d 0600
000000d0: da75 0c00 9f17 0680 26b4 0000 2298 0400
000000e0: 4d6c 0280 7d9c 0380 9add 0300 d4d5 0180
000000f0: f286 0200 ba6a 0280 c8a2 0080 d383 0100
00000100: 3478 0100 8bac 0180 5fc0 0100 20f1 0000
00000110: 5c0b 0180 a638 0100 2f20 0200 bd10 0080
00000120: 0b9b f137 b76a 9635 2fa6 1137 4ea6 b737
00000130: 77e2 8eb6 b2af cbb4 2d86 4b38 de27 a1b5
00000140: 3be5 a2b5 94f5 5f3b b205 983c bb9d 58be
00000150: 826d 80bc 9742 a63c 13f5 67bc 5e30 943d
00000160: cca2 34bd 5b55 09be 696d 0180 fece 0100
00000170: b3d0 0000 80ae 0180 b97c 0100 fceb 0100
00000180: 92ef 0180 0ed1 0100 de15 0180 3c75 8abc
00000190: 33da 303d 518d d23b af96 f63b cac3 fb3a
000001a0: bb8d 2c3d cc8b 103d e3f9 c7bc 16be 0ebc
000001b0: fc5c 0080 4b55 0180 f50c 0200 24e9 0080
000001c0: ddd7 0180 e317 0380 123c 0000 fbf6 0280
000001d0: 2772 0300 92bf 7606 6d02 5109 4018 4109
000001e0: 964d 3207 f2c8 1189 3791 a288 a73f 8988
000001f0: ab09 4788 e8b4 c588 90d3 0080 f5a0 0180
00000200: aa40 0180 7100 0180 f48f 0080 90e5 0100
00000210: 7a8d 0280 5868 0180 2383 0100 6fcb 0180
00000220: e83c 0000 6005 0200 1cf5 0180 ce93 0180
00000230: 12bb 0100 a977 0100 3e34 0000 f85f 0100
00000240: f47a 0ca5 f45d f9a2 530d 3724 ab33 2ea4
00000250: ce47 ea23 61e9 e3a3 ab8a 4323 5d0d 78a4
00000260: 395e ad24 57f8 6e87 3b13 0284 3ca9 9187
00000270: 8ae5 3607 5205 9706 10a8 ac05 7400 aa06
00000280: 6802 9a86 52af 5107 66b9 0080 378e 0180
00000290: ae02 0200 0f94 0000 8609 0180 6294 0280
000002a0: c889 0000 6975 0000 8d0e 0100 daee 1b27
000002b0: 853f e6a6 dd1f 9ca7 3306 5526 5f98 ec25
000002c0: 7971 86a6 79ab aba6 b502 fea5 c63b 8ba6
000002d0: fb82 7a0c 11f7 028c 89ae 0f0b e30a 8c8a
000002e0: 44bb f48b 0e84 490b 9979 948a 2474 640b
000002f0: c37d ea0b ac67 36bb d930 5f3a 76d9 b03a
00000300: 14cc 88bd 9eea 9dbd 1b86 28bd 6f8d e03b
00000310: 65d8 a7bc 0177 c8bc a809 2500 3f3b 9803
00000320: 1f28 be81 00ea 0780 8b1a 0080 1a3c 0500
00000330: 208a 0200 16cc 0b00 e4c4 7b81 af06 0900
00000340: 9a42 0100 6d13 0b80 e0e9 0080 7981 0480
00000350: 2594 0e80 ef4f 0000 d9e2 0380 73cc 0500
00000360: f5e2 5d08 fb1d 048a 371a 0889 a897 2f09
00000370: b85d 9c88 d708 c79e ed18 2d8a 91ac a81e
00000380: e769 0988 dd82 0500 b555 0280 795b 0000
00000390: 03b4 0500 dc04 0500 ae66 0100 f25e 0080
000003a0: 3c8d 0000 0621 0000 92dd 4e04 67f5 0687
000003b0: 9895 c308 35fe 0580 610b 8106 8c7a ba87
000003c0: 764c 0d84 8402 a009 4421 0989 b03a 46ab
000003d0: cf5a ea33 0a0c 2f34 58c1 808c 6dea a5aa
000003e0: 552d 87af fe3e 0a80 c16f 762b 8a1a 5638
000003f0: a568 0100 83a6 0280 ba02 0280 c8c5 0000
-8.7728e-40 -1.5711683e-33 2.4855175e-13 5.55173e-40 5.05565e-40 4.1378947e-10 6.64214e-40 1.33699e-40
9.55513e-40 -0.033941552 -0.026015047 -0.004298625 0.008571836 0.036941737 -0.00411854 0.042506527
-2.5665033e-05 -0.10962303 1.7421e-40 -5.7717e-41 1.65182e-40 2.14467e-40 -2.5582e-41 -1.74382e-40
-4.28216e-40 3.01862e-40 -5.25215e-40 -2.9550654e-35 2.98674e-40 4.662065e-35 -4.6210015e-35 9.5721073e-35
2.3706543e-35 -8.385532e-35 1.706638e-35 2.6017701e-36 1.5194185e-17 1.09816134e-17 -1.1526216e-17 -1.2443177e-17
-5.4145713e-18 -6.617884e-18 1.1078148e-17 -1.5834225e-17 -6.553841e-18 -2.62759e-40 -4.61382e-40 3.45217e-40
5.20865e-40 -2.97339e-40 4.28887e-40 5.67208e-40 1.144303e-39 -5.59487e-40 6.4625e-41 4.21917e-40
-2.22522e-40 -3.31644e-40 3.55002e-40 -1.68543e-40 2.3208e-40 -2.21957e-40 -5.8395e-41 1.39125e-40
1.34956e-40 -1.53732e-40 1.60845e-40 8.65e-41 -9.591e-41 1.12157e-40 1.95216e-40 -6.005e-42
2.8801636e-05 1.1206929e-06 8.681366e-06 2.1892742e-05 -4.2582938e-06 -3.7939532e-07 4.8523932e-05 -1.2007038e-06
-1.2136655e-06 0.0034173476 0.018557403 -0.2115392 -0.015677217 0.020295424 -0.014157551 0.07235788
-0.044100568 -0.13411467 -1.31084e-40 1.6609e-40 7.4867e-41 -1.54434e-40 1.36578e-40 1.76491e-40
-1.77777e-40 1.6683e-40 -9.968e-41 -0.016901605 0.04317684 0.0064255376 0.007525287 0.001920813
0.042127352 0.03528957 -0.024411147 -0.008712312 -3.3357e-41 -1.22433e-40 1.88319e-40 -8.3635e-41
-1.69273e-40 -2.84075e-40 2.1549e-41 -2.72271e-40 3.16457e-40 4.64082e-35 2.51586e-33 2.3242932e-33
1.3414032e-34 -1.7548224e-33 -9.78416e-34 -8.260352e-34 -5.989575e-34 -1.1899037e-33 -7.5894e-41 -1.49576e-40
-1.15033e-40 -9.1994e-41 -5.164e-41 1.74187e-40 -2.34423e-40 -1.29267e-40 1.38878e-40 -1.64814e-40
2.1849e-41 1.85599e-40 -1.79764e-40 -1.44858e-40 1.58944e-40 1.34761e-40 1.8741e-41 1.26263e-40
-1.2184722e-16 -6.759106e-18 3.9693086e-17 -3.7774e-17 2.5400741e-17 -2.4710229e-17 1.0600335e-17 -5.3787747e-17
7.518641e-17 -1.797811e-34 -1.5290257e-36 -2.1916642e-34 1.3759614e-34 5.6807705e-35 1.6236539e-35 6.394756e-35
-5.79319e-35 1.5774934e-34 -6.6508e-41 -1.42853e-40 1.84632e-40 5.3113e-41 -9.5252e-41 -2.36901e-40
4.9427e-41 4.2119e-41 9.7055e-41 2.1640053e-15 -1.5976673e-15 -4.3333244e-15 7.390762e-16 4.1042725e-16
-9.328875e-16 -1.1911986e-15 -4.406381e-16 -9.661264e-16 1.9298715e-31 -1.0089185e-31 2.7672104e-32 -1.3485605e-32
-9.426715e-32 3.881054e-32 -1.4297622e-32 4.3998577e-32 9.0322747e-32 -0.002783279 0.0008514054 0.0013492543
-0.0667955 -0.07710765 -0.041143518 0.0068527977 -0.020488927 -0.024470808 3.401377e-39 8.947359e-37
-6.985255e-38 -7.26792e-40 -9.522e-42 4.80738e-40 2.33221e-40 1.083403e-39 -4.624268e-38 8.28917e-40
1.15728e-40 -1.017159e-39 -8.3899e-41 -4.13788e-40 -1.338841e-39 2.8675e-41 -3.56884e-40 5.3252e-40
6.6771555e-34 -6.3612075e-33 -1.638273e-33 2.1136167e-33 -9.410942e-34 -2.10736e-20 -8.334335e-33 1.7859064e-20
-4.1351425e-34 5.06122e-40 -2.14417e-40 3.2814e-41 5.23754e-40 4.6092e-40 1.2867e-40 -3.406e-41
5.0665e-41 1.1847e-41 2.4316924e-36 -1.0153157e-34 1.1771305e-33 -5.5037e-40 4.8541127e-35 -2.8058196e-34
-1.660958e-36 3.8520965e-33 -1.6506417e-33 -7.0425176e-13 1.0912992e-07 1.6302525e-07 -1.9837887e-31 -2.9472553e-13
-2.4588567e-10 -9.40952e-40 8.7551846e-13 5.1046292e-05 1.29375e-40 -2.43404e-40 -1.84649e-40 7.095e-41

conv3.bias f4 [128]
00000000: 0b3f 06bf 59c0 54a7 3ea0 42b2 319d 24bc
00000010: 7453 dbbe ecdd 0ebd aa33 edb6 971a b3b0
00000020: c083 39bf 765a 40bc da7d adbb 90d1 b6be
00000030: 762b a6bf 6fdd e3b6 098f b0b8 1785 9f3e
00000040: 634f d6bc 831e d6b9 f540 6ab9 ab6c 43bd
00000050: fd40 d5be 6fb0 5dbd 2ef0 04b1 f474 2cab
00000060: f33a b8be edb3 63aa ca80 14b3 acb0 c5be
00000070: 5037 2cb9 812b f2bd b1b6 1cb4 84e6 c0bd
00000080: 7d88 cea3 cf2d 04b8 734b 7db5 6917 52b1
00000090: fd4b bdb2 0fbf 0dbc 6a72 1bb8 36fd 56b4
000000a0: 3cec 84be 3b94 26b3 0adf a7ba fa31 6bb6
000000b0: bed8 bdaa d707 31b9 c3e1 9abd 7d2c 8cad
000000c0: 0897 6bbb d524 60b3 d6c2 6bad a9ca 6e3a
000000d0: eb90 f8b9 e6e4 99b1 74c0 d4be fdd2 b5b7
000000e0: 5e8d 03bf 44a8 5ab5 edb6 62be 4f75 d9bd
000000f0: c0b5 c5bd f801 43b9 9df0 1fb5 cfeb 05bd
00000100: 8f6f c2a9 2fe0 403f 7151 04b1 1bb0 22b3
00000110: cbd9 c5b9 a2af aabe a038 dcbb 8201 07bf
00000120: e046 a8bb ed22 6abb 2d53 26b3 2293 c2bc
00000130: 4983 f4bc 861e 7abe d5a9 2440 0d20 65b5
00000140: b06d f4b4 4d72 0fbc 2e05 19b5 1bdf 08be
00000150: 6d1b 75be 39ae a1be c638 d8bc 0027 4fbd
00000160: 1d83 78a9 4e3c 1cbb 47cc 1fba 4508 36bb
00000170: 0486 4ebe a8ea 65be 0d85 5fb3 e755 f1bd
00000180: 58fb 88af 1ff3 f5ae ed2c 97b7 656e 25b5
00000190: e406 d6b9 dfd7 d3ab ca67 d7bd 5ecd 993f
000001a0: 16d4 cfac 8863 1bbb 3aaa 94be 4fa3 6ebe
000001b0: a1a6 15ac 2f83 99b5 2c67 52b8 549a 46bb
000001c0: f241 5abe e869 9bb6 4b3e d53e 221e 05bb
000001d0: 2c87 7eb6 7b3e 94b5 4a84 b3ba 485f 51bf
000001e0: 168f 84bd 3831 a1b8 3801 c5af fa3b 00bf
000001f0: 52cc dfb8 385f 87be aa56 b7ae 6498 1fb8
-0.52439946 -2.9525182e-15 -1.1328721e-08 -0.010047243 -0.42837107 -0.03487961 -7.069165e-06 -1.3031521e-09
-0.7246666 -0.011740318 -0.0052945437 -0.35706758 -1.2982013 -6.7909054e-06 -8.418976e-05 0.31156227
-0.026160901 -0.00040839994 -0.00022340177 -0.047711056 -0.41651145 -0.05412334 -1.9345054e-09 -6.126898e-13
-0.35982475 -2.0224074e-13 -3.457607e-08 -0.38611352 -0.00016423804 -0.11824704 -1.4595095e-07 -0.09418967
-2.239237e-17 -3.1513915e-05 -9.435964e-07 -3.057233e-09 -2.2037051e-08 -0.008651509 -3.7061436e-05 -2.002242e-07
-0.25961483 -3.87847e-08 -0.001280756 -3.504682e-06 -3.372354e-13 -0.00016882956 -0.07562592 -1.5935914e-11
-0.0035948176 -5.2187563e-08 -1.3401466e-11 0.0009109178 -0.00047410218 -4.478909e-09 -0.4155308 -2.167513e-05
-0.51387584 -8.145619e-07 -0.22140093 -0.10618078 -0.09653807 -0.00018597383 -5.9582254e-07 -0.032695588
-8.634683e-14 0.75342077 -1.9254822e-09 -3.787873e-08 -0.00037737036 -0.33337122 -0.0067206174 -0.52736676
-0.005135402 -0.0035726384 -3.8725535e-08 -0.023751799 -0.029847758 -0.24425706 2.5728657 -8.535579e-07
-4.552835e-07 -0.008755279 -5.700448e-07 -0.13366358 -0.23936243 -0.31578234 -0.02639426 -0.050574303
-5.5180785e-14 -0.0023839655 -0.00060958083 -0.0027775925 -0.2016831 -0.22452796 -5.2042243e-08 -0.11783963
-2.4916846e-10 -1.1184497e-10 -1.8021523e-05 -6.1627935e-07 -0.00040822395 -1.5052368e-12 -0.10517843 1.2015798
-5.90684e-12 -0.0023710448 -0.29036123 -0.23304485 -2.1266671e-12 -1.1437568e-06 -5.0163988e-05 -0.003030439
-0.21314219 -4.631689e-06 0.41649088 -0.002031215 -3.792763e-06 -1.1045043e-06 -0.0013696041 -0.8178601
-0.06472604 -7.686246e-05 -3.5834957e-10 -0.50091517 -0.00010671526 -0.26439834 -8.337271e-11 -3.805048e-05

act_conv1.weight f4 [4, 128, 1, 1]
00000000: 7c5c 0700 ee95 0c05 dcb1 0cb6 2eb4 d98c
00000010: a268 2604 321e 0780 6903 2104 1b16 5d11
00000020: 4f04 30b5 33c5 741a 94e2 a58a 4a7e 4220
00000030: c178 11bc d8cf da30 349f ec16 9d12 67bb
00000040: eb7c 0000 4cd5 c004 4751 00b4 b161 f692
00000050: 55e4 0280 1b99 bf02 157b e00e 81c2 e101
00000060: a561 0000 ad41 1c28 733c 2900 173d 7e16
00000070: 860c 5808 fd0a 0180 3473 b016 af95 0500
00000080: 7a3b c486 0d95 1a85 119b fc0e 7e0a 97a2
00000090: 9ba3 a882 1fa3 0b80 83e2 a9ad 8c6c 0214
000000a0: d396 ca82 1c5a 030a e134 0280 d26a 0a00
000000b0: 09e8 6023 c005 24a8 54ac 892f 8514 0280
000000c0: 1cf4 ba8d 1ccc e98a 30d9 be07 3e6d b42c
000000d0: e4eb 0800 8aa4 2f84 404d a221 a311 a584
000000e0: e295 b003 e8e5 0180 fe7b 22bc 81b4 4dbc
000000f0: baf8 ad02 a8d0 0400 a171 fd02 6280 1884
00000100: e323 bc25 363c e1bb 8fa3 992a 6fe9 ce04
00000110: 4c67 6d13 726e d4b9 cf6b 97b7 7469 f204
00000120: 4da4 0100 e955 e4ae e935 5410 d1d0 0200
00000130: a77a e295 2f8f b920 aafd aebc 36a0 bf0c
00000140: 16da 45b0 3a85 d1af aa6d 36b2 bbfb 8822
00000150: 10ae c82d 6f5a bb19 ac5f f905 b038 6607
00000160: 75b0 22b6 391a 30a7 8666 ba82 08bc 0280
00000170: 4caf 8a82 fdfa 0884 2048 0000 2f2c 6403
00000180: c688 4b1a 9140 b381 eac9 d203 97f7 0faf
00000190: 981f 5b9d 25ca 9e9d 1741 4d84 c869 dabb
000001a0: 18a4 6a16 9480 e29c 4063 9a10 07c4 0c8a
000001b0: 8ccc ce09 2f07 ab03 0cdd a188 38ca 8904
000001c0: df22 0f05 49ac 9a05 46e7 75bb 671d 44a6
000001d0: 1769 7282 70a6 0cb0 ade8 de82 ec58 3403
000001e0: 16da 7e0c ba2a 9488 4c14 bba4 500e 0738
000001f0: f73b 9a33 85d2 9783 0340 070f c966 ea0f
00000200: f08c 3bbb 8ac3 47b7 46b3 07bb 1d1d 4ebd
00000210: 359e c2bd e594 f63c e5fe 63bb 75a1 7fb7
00000220: 606d cb3e 772f b2bc 29fd e6bb 7284 4a3c
00000230: c587 fc3c 78c6 6cba f2ea cebc e955 47be
00000240: 9021 5dbc 94d3 d13a 1846 1fbb 3534 593b
00000250: 8fb4 273e de75 5ebd 1543 04aa efc9 83b8
00000260: f180 bdbd e439 e13b 5f68 6db7 ffb6 bfbc
00000270: b345 0c3c c282 d3bc e3a4 733b 8cc4 983c
00000280: f52e 8a24 1c7a b9b8 d8fd 36bb 6df5 253a
00000290: 0844 75bc 331b 9abc 36e1 96ba 783a 9238
000002a0: 2d1a 43be 7a04 c438 8703 0938 b071 043a
000002b0: e98a 03ba db74 b6b7 7570 11bd bc43 bb3b
000002c0: 6167 14bb 25f3 3dbb 20b1 9fba d657 92b8
000002d0: 88cd 29ba c4e5 bdb7 e96f b03d 2241 253b
000002e0: f3e7 343d d137 65bc e7c4 1e3d e32f 59bd
000002f0: f931 923d e6ea 4cba d8db dbb9 f3f9 68bc
00000300: 8169 3b39 3aa2 3e3d 7ab3 8c3b ae47 52b7
00000310: a480 05bc 3ad6 41bc 467d 92bc 6a34 93bd
00000320: f6cd 293b e672 17bd fa40 14b9 b4b4 63bc
00000330: 35d6 773d 017c cbbd e6b9 0abe 7019 b5bc
00000340: 5da0 01bc 27d5 f83c 2940 f0bb e886 05be
00000350: b4e1 91bc 3ccb 7d3c 5f31 a13c 764b 8abd
00000360: 677a dcb8 fb1a b2bc f1cc 683a 4a9f 83bc
00000370: 0b7f fd3c bd8e a9bd ba0f 65b3 0eed 2ebe
00000380: bc37 c2bb 97f0 233c a5ae 58b8 33ba 903c
00000390: bb23 45b9 0ef8 b63b af7c 19bd 03d9 b5bf
000003a0: 1723 b83b 54d8 0c3c 4486 08bd 0a3d 2f3e
000003b0: 7a40 fcba 9a22 03bc 18dc c4ba 4a1f 0fbd
000003c0: c63e 363d 133f 413b b3c6 1ebb 8687 d23b
000003d0: e44e 2bbb b593 0c39 ccf3 2f3a 1b95 80bc
000003e0: 9f30 9e3d 54f2 3b3c 209f 3739 8611 3a3e
000003f0: d172 46bc 1c4d 8cbd baef 3eb8 0477 f93b
6.76026e-40 6.610306e-36 -2.0965153e-06 -3.3542586e-31 1.9561251e-36 -6.5368e-40 1.8927025e-36 1.7440638e-28
-6.557138e-07 5.0617314e-23 -1.5974151e-32 1.6474225e-19 -0.008878888 1.592066e-09 3.8228328e-25 -0.0035258897
4.4812e-41 4.5334865e-36 -1.1950497e-07 -1.5548865e-27 -2.65581e-40 2.8152806e-37 5.5338787e-30 8.2931046e-38
3.5028e-41 8.673981e-15 3.78694e-39 2.0537233e-25 6.5014857e-34 -9.5777e-41 2.8507037e-25 5.12874e-40
-7.38144e-35 -7.2684215e-36 6.227212e-30 -4.093974e-18 -2.4779286e-37 -1.068707e-39 -1.9313667e-11 6.58473e-27
-2.9767801e-37 6.324368e-33 -2.0264e-40 9.56675e-40 1.21922e-17 -9.105076e-15 2.50426e-10 -1.91032e-40
-1.1521902e-30 -2.2513861e-32 2.8715674e-34 5.128036e-12 8.19306e-40 -2.0646704e-36 1.0997995e-18 -3.880751e-36
1.0378762e-36 -1.7431e-40 -0.009917257 -0.0125552425 2.5562827e-37 4.42194e-40 3.7240229e-37 -1.7926465e-36
3.263712e-16 -0.006873633 2.729175e-13 4.8644742e-36 2.9964535e-27 -0.0004051808 -1.8050805e-05 5.699077e-36
1.50776e-40 -1.03835e-10 4.185116e-29 2.5858e-40 -9.1474184e-26 3.143497e-19 -0.02136119 2.9524633e-31
-7.19781e-10 -3.8111542e-10 -1.0618729e-08 3.7129404e-18 2.2814667e-11 1.9371873e-23 2.3450992e-35 1.7319936e-34
-2.4242593e-06 -2.4439122e-15 -2.738909e-37 -2.51124e-40 -2.0377893e-37 -1.6101971e-36 2.5874e-41 6.70539e-37
4.20899e-23 -6.5846863e-38 1.2389048e-36 -1.3093736e-10 -2.9000742e-21 -4.2031264e-21 -2.4127522e-36 -0.006665442
1.8954148e-25 -1.4988662e-21 6.089521e-29 -6.7776235e-33 4.978505e-33 1.0052126e-36 -9.741803e-34 3.2394254e-36
6.7302325e-36 1.4545378e-35 -0.0037521883 -6.804101e-16 -1.7809511e-37 -5.1168225e-10 -3.2753518e-37 5.2999323e-37
1.9633076e-31 -8.917471e-34 -8.113271e-17 3.2199838e-05 7.1820914e-08 -8.923315e-37 6.668342e-30 2.3113773e-29
-0.002861794 -1.1906852e-05 -0.002070622 -0.050320733 -0.09502832 0.030100295 -0.003478938 -1.5236777e-05
0.39731884 -0.021751149 -0.007049222 0.012360679 0.030826459 -0.00090322597 -0.025258515 -0.19466366
-0.013496771 0.001600849 -0.0024303254 0.003314269 0.16377471 -0.054311626 -1.1747229e-13 -6.28418e-05
-0.09253109 0.006873356 -1.4150602e-05 -0.023402689 0.008561539 -0.025819186 0.0037177138 0.018648408
5.992751e-17 -8.844232e-05 -0.0027922299 0.0006330822 -0.014969833 -0.018811798 -0.001151121 6.972713e-05
-0.19052954 9.346842e-05 3.266663e-05 0.0005052341 -0.00050179526 -2.1750506e-05 -0.035507638 0.0057148617
-0.0022644626 -0.0028984037 -0.0012183525 -6.978183e-05 -0.0006477465 -2.2637549e-05 0.08615095 0.0025215824
0.044166517 -0.013990358 0.038762 -0.053024184 0.07138438 -0.0007816985 -0.0004193473 -0.014219749
0.00017873013 0.04654143 0.004293856 -1.2533665e-05 -0.008148346 -0.011830861 -0.017882 -0.071877316
0.0025910116 -0.03697481 -0.00014138586 -0.013898063 0.060507018 -0.09935761 -0.13547477 -0.022106856
-0.007911769 0.030375076 -0.0073318672 -0.13039744 -0.017807819 0.015490349 0.019676862 -0.06752674
-0.00010513217 -0.02174138 0.00088806363 -0.016067166 0.030944368 -0.08279178 -5.333252e-08 -0.17082617
-0.005927054 0.010006092 -5.1661063e-05 0.017666912 -0.00018800695 0.0055837696 -0.037472423 -1.4206852
0.0056194174 0.0085964985 -0.03333117 0.17113128 -0.001924529 -0.008003855 -0.0015019206 -0.03494195
0.04449346 0.0029487058 -0.002422732 0.006424847 -0.0026139552 0.00013406466 0.0006712049 -0.015696099
0.077241175 0.01147135 0.00017511519 0.18170747 -0.012112335 -0.06850645 -4.5522793e-05 0.0076130647

act_conv1.bias f4 [4]
00000000: 029a 01bd 6205 393f 67fd 47be 4acb f53e
-0.031641014 0.7227384 -0.19530259 0.4800666

act_fc1.weight f4 [81, 324]
00000000: bb1b 5c00 15f6 3002 5740 8702 4f50 7281
00000010: 9d5d 2303 469f 6002 e88a 7182 47b2 9a03
00000020: 8ef2 6a00 47c7 4901 7926 4301 a639 8882
00000030: d0bf 7802 74e0 9c02 a0ba 0903 9b88 4f82
00000040: 9279 a303 41ba 6c03 5d68 a500 1b84 8083
00000050: db75 1901 379f 5082 a3b2 0603 201e 5b83
00000060: 98f2 1604 3728 0b03 85ff f582 179d 2682
00000070: 7f84 0c84 efbc 9683 e384 0881 65bc 1b84
00000080: 391d 1204 0975 c403 57de 3a82 faa5 2703
00000090: ddfd 5883 663f 2d82 6748 5880 ef58 d003
000000a0: fc78 e903 fb6b 2f82 76d6 5284 b9dc 6782
000000b0: 7a5c f983 be7f 4083 ad32 ff01 07f2 df03
000000c0: bb63 a602 c111 1482 caf8 8283 fcb5 2604
000000d0: 6ecb aa02 e736 b782 7adb c001 5a31 0704
000000e0: f70c 8f83 0603 5782 fbf6 bb81 df98 3904
000000f0: ca6a c803 5f42 ea02 53d4 a803 fb9f 9980
00000100: c7b5 3a03 ec88 c904 b290 a903 9987 9c82
00000110: 33d5 1204 4e7b 4703 6671 8b83 b7be 9203
00000120: 7c6b f981 1a0a 3982 4cfc e502 999c 9002
00000130: 170f f280 9029 2d83 0958 7882 5ab1 9701
00000140: 8d8e 8282 d612 6cbd 2d6a 31be 44ad 72bd
00000150: cc44 863d 7573 55bb 3522 58bd fe24 f43d
00000160: d476 96bd 2972 c6bd a12f 4ebd 057e 61be
00000170: d65c b9bd 9d9b 66b8 4ae8 053d 355f 65be
00000180: 5f8a dabd 507d 1cbe 17dd 11be 5b87 d03d
00000190: e5ef a2bb 2448 a53d d86b 923d 47a3 b73d
000001a0: 31a7 c0bd 8a56 f8ba f780 40bd b76a c83c
000001b0: ae8b 923e ba96 9dbc 6c4e 8dbd 40c2 5e3d
000001c0: 6ae8 5abd 764d 5b3e 7331 eabd c3bd 0fbe
000001d0: 05f8 c3bd 64c7 663d af7d 8dbd ba62 af3c
000001e0: c76d 17be 8f6b ae3d 027e 693d 4b7f 2fbd
000001f0: 48d3 313e cfaa 77bd 9116 2d3e a247 153d
00000200: f1e8 bd3d c53d a53e e25c ddbd a38d b7bd
00000210: a139 8c3d b1f1 7d3d ad4b 83bc b7b2 843e
00000220: 7ff8 88bd ac2f 343e d7c5 313d f449 973c
00000230: c8ed 8ebd 0e77 003d 1e7f b73d d697 853c
00000240: a13d 3a3e 0d00 8e3e 607c 65bd 91eb 11be
00000250: 39f8 c8bd d0fa d7bd be3a 993c d6c6 e5bd
00000260: ce27 8cbd 13c4 a8bf 2046 1e3e c524 5e3e
00000270: 79b0 3b3e 05c3 223e 70e0 863e 93ff 423e
00000280: 934b 6bbd 5887 aebd 386c 833b 5167 1eba
00000290: e0dc acbc fde3 863c 61e1 a63c 5ca9 023c
000002a0: d3b3 d63b ce57 d53b 8fd8 b4bb 53e7 0c3d
000002b0: 233f a4bc 9186 2b3c 4d9c 74be 3b83 65be
000002c0: da14 06bc 1101 023c f9d0 8abb 47a9 3f39
000002d0: 6b75 d6bc 4493 86bb bd5a 41be 813d 5dbd
000002e0: 3e8d 2f3d 6abe 4a3c 4ce0 a0ba 1a17 b93b
000002f0: 43ca 9a3a bbd3 9abd f7e2 2bbe 67f3 1cbe
00000300: a8ce 813d a963 873d 5a3d f63c d414 c63c
00000310: de15 60bb 4914 37bb 3432 a5be f0ad 12bd
00000320: c409 9bbb 7c4d 473a 3b38 193c d0c0 603c
00000330: e9a4 613a 7beb b03c 4658 78ba 7c61 61bd
00000340: 38d5 043e 0c47 a0bd 396d 69bc 29af 0a3c
00000350: 0932 1cbb e441 0e3c 9663 f4ba bf90 5dba
00000360: ad0a fabc d654 b23c baed 05bc 9bfd 023c
00000370: bb15 693c 53e6 073c f76a ab3c 9726 533c
00000380: 6ed3 c239 5d77 30bc 3678 063e 20bb fbbb
00000390: 9692 c43c b4ef 393d f3b5 f63c 0342 64bb
000003a0: 0a61 ac3b f0c7 a83a af47 3a3c cc78 d3bd
000003b0: bad3 cebc e75b b6bc 08ea bc3c 6a52 363c
000003c0: 7636 d539 d826 613c a46e 0bb8 f7c2 913d
000003d0: a48c ce3d 4f2f 9bbc 9dd9 bbbd 2939 31bd
000003e0: 8eff 9f3d 7cc6 c0bc 3f76 ed3d a47e 9f3d
000003f0: 84c3 b13c e916 463d 6732 2abc 1838 4abd
8.458813e-39 1.300106e-37 1.9873396e-37 -4.4506e-38 4.8008858e-37 1.650263e-37 -1.7745748e-37 9.092237e-37
9.821575e-39 3.7060844e-38 3.5843446e-38 -2.0016493e-37 1.827521e-37 2.305097e-37 4.0474917e-37 -1.5247162e-37
9.60819e-37 6.9567976e-37 1.5190295e-38 -7.553494e-37 2.818622e-38 -1.5327119e-37 3.9584126e-37 -6.4392898e-37
1.7743809e-36 4.0894593e-37 -3.6146176e-37 -1.2240836e-37 -1.651776e-36 -8.859585e-37 -2.5074596e-38 -1.8306669e-36
1.7175636e-36 1.1546715e-36 -1.372893e-37 4.926742e-37 -6.3768116e-37 -1.2728227e-37 -8.107497e-39 1.2245559e-36
1.3722286e-36 -1.2887958e-37 -2.4783857e-36 -1.7034544e-37 -1.4656136e-36 -5.657037e-37 9.374492e-38 1.3162329e-36
2.444875e-37 -1.0878418e-37 -7.697832e-37 1.959677e-36 2.5096018e-37 -2.6920946e-37 7.0844594e-38 1.5891835e-36
-8.407761e-37 -1.5796573e-37 -6.904735e-38 2.181684e-36 1.1779461e-36 3.4421305e-37 9.9229e-37 -1.4108221e-38
5.4869157e-37 4.7380616e-36 9.966148e-37 -2.299997e-37 1.7260114e-36 5.862239e-37 -8.195721e-37 8.624895e-37
-9.1622387e-38 -1.3594552e-37 3.3793337e-37 2.124878e-37 -2.2229603e-38 -5.088784e-37 -1.8245427e-37 5.5723127e-38
-1.9183603e-37 -0.05763515 -0.17325659 -0.05924727 0.06556091 -0.0032570038 -0.052766997 0.11921118
-0.073468834 -0.09689743 -0.05033839 -0.22020729 -0.0905091 -5.49812e-05 0.03269223 -0.223996
-0.106709234 -0.15282178 -0.14244495 0.10182067 -0.0049724453 0.080704 0.07149476 0.089666896
-0.09406889 -0.0018946689 -0.04699799 0.024464948 0.28622192 -0.019236911 -0.068997234 0.05438447
-0.053444304 0.21416268 -0.11435213 -0.14037232 -0.0956879 0.056342497 -0.06908738 0.021409381
-0.1478797 0.08516609 0.057004936 -0.042846005 0.17365754 -0.06046563 0.1690314 0.036445267
0.09272946 0.3227369 -0.108087316 -0.08962562 0.06846929 0.061998073 -0.016027296 0.259176
-0.06688022 0.1759631 0.043401565 0.01846788 -0.06978947 0.03136354 0.089597926 0.016307753
0.18187572 0.27734414 -0.056026816 -0.14250018 -0.0981297 -0.105458856 0.018704768 -0.112195656
-0.0684353 -1.3184837 0.15456438 0.21693714 0.18329038 0.15894707 0.26343107 0.19042806
-0.05744512 -0.085219085 0.0040107034 -0.0006042617 -0.021101415 0.016466135 0.02037114 0.007974949
0.0065521984 0.0065107113 -0.00551898 0.034400295 -0.020049637 0.010469095 -0.23887749 -0.22413342
-0.008183682 0.007934825 -0.0042363373 0.0001827824 -0.026179036 -0.004106911 -0.1888227 -0.054013733
0.04285931 0.0123745 -0.0012273877 0.005648506 0.0011809546 -0.07559916 -0.16785799 -0.15327226
0.06338245 0.066108055 0.030058552 0.024179853 -0.0034192721 -0.0027935675 -0.32264864 -0.03581041
-0.0047313888 0.00076027936 0.009351785 0.013717845 0.00086076424 0.02159666 -0.0009473603 -0.05502461
0.12971961 -0.07826051 -0.014247232 0.008464613 -0.0023833534 0.008682702 -0.0018645402 -0.000845205
-0.030522669 0.021768969 -0.008174354 0.007995035 0.014226372 0.00829466 0.020925028 0.0128876185
0.0003716009 -0.010770646 0.13131794 -0.007682219 0.023995679 0.045394614 0.030116057 -0.0034829385
0.0052605914 0.0012876969 0.01136963 -0.103257746 -0.025247443 -0.02226062 0.023060814 0.0111280475
0.00040667102 0.013742171 -3.3243225e-05 0.07117265 0.10085419 -0.018943457 -0.09172366 -0.043267403
0.07812415 -0.023532145 0.11594819 0.07787827 0.021699674 0.048361693 -0.010387993 -0.0493699

act_fc1.bias f4 [81]
00000000: 52aa 11be 79a6 43be 09fa 8cbe baf6 ddbc
00000010: 1f89 31be 0185 b5bd 7404 d6be 6016 f3bd
00000020: fe4a 11be 8ed5 2fbe af01 93be b3f3 9cbc
00000030: f74a 8a3d 4f4d 4e3e 4d61 373d 017b dbbd
00000040: 1acb b6be b3a3 32be 4d25 a8be fbdd 41bd
00000050: e663 f9be e8ce 283d 8a46 2d3f 3ece b83c
00000060: 8623 15bf 364b d4bd 77b5 9abe deb6 01bd
00000070: 123d bc3d c753 323d a352 cc3e d7ef 0a3f
00000080: 6622 be3e 3b3a 353d d4a1 513c d104 0dbd
00000090: dfac 2cbe 0d81 dc3d f521 303f ca03 b93e
000000a0: db70 2e3f b164 023f 0c1b 3b3f d03d 473e
000000b0: 9891 08be f499 adbc 5752 893d 65d4 073e
000000c0: e26b 9e3e 3cd3 083f 257a b23e 30c4 7e3d
000000d0: a50f 3b3d 2a54 a6bd 2afc 90be f87e ecbc
000000e0: 7129 fdbe fd7b f63c 1d10 2f3f 1c00 173d
000000f0: 76a4 fcbe b9ce 8ebd 2701 c1be 7936 12be
00000100: 692f 49be 9fce 00be 9dbc cb3d 0e4c 253e
00000110: 8d5e 933d 689c 5bbd 88a6 8dbe 4955 dcbd
00000120: 09e7 49be abc5 03be 7bce 9dbe 7d5f b3bd
00000130: 3f5c 7cbe 6b94 10bd af9d afbe 8f7e f2bd
00000140: 56f2 19be
-0.14225128 -0.19106473 -0.27534512 -0.027095187 -0.17337464 -0.08863259 -0.41800272 -0.11869502
-0.14188763 -0.17171308 -0.28712222 -0.019159174 0.0675258 0.20146678 0.044770528 -0.107168205
-0.3570183 -0.17445259 -0.32840958 -0.047330838 -0.4870903 0.041212946 0.6768576 0.022559281
-0.5825733 -0.10365908 -0.30216572 -0.031668536 0.09191336 0.043536928 0.39906797 0.54272217
0.3713562 0.044244986 0.0127949305 -0.03442842 -0.1686282 0.10766802 0.68801814 0.36135703
0.68140954 0.5093489 0.73088145 0.19457173 -0.1333679 -0.021191575 0.06705158 0.13264616
0.30941683 0.5344732 0.34858814 0.062198818 0.045669217 -0.08121522 -0.28317386 -0.028869137
-0.4944568 0.03008842 0.6838396 0.03686534 -0.49344224 -0.06973023 -0.37696192 -0.14278592
-0.19646992 -0.1257882 0.099480845 0.16142294 0.071957685 -0.053615957 -0.27666116 -0.10758454
-0.19717039 -0.12868373 -0.30821595 -0.08758447 -0.24644564 -0.035297792 -0.3429999 -0.118405454
-0.1503385

val_conv1.weight f4 [2, 128, 1, 1]
00000000: 72f9 ccb1 2188 3a32 134d 6f39 e2ca 56b4
00000010: bc90 e83a 1018 33b3 d2e0 c6b1 80dc cab3
00000020: fdc1 073a 5ebe 50b7 07b1 2c3a 6421 b234
00000030: 5aa6 a002 56bc e92e 2735 3938 3e75 0380
00000040: 8379 f6b2 4c3c 8234 67e5 10ae 72a8 1032
00000050: aa43 0cb8 c54e 13b0 2f23 d8b6 e63e ebb3
00000060: 72a2 e1b4 1dca f336 6523 2730 6497 c0b7
00000070: 4147 3e3b 39b8 1d33 96d2 9638 2072 e835
00000080: defb 5836 6693 15b0 ddc5 04b1 0993 9935
00000090: c48f 7b3b 6e4e 4233 14cd 9739 ce44 06b0
000000a0: 04b6 deb1 ee0c 6b36 def2 1f38 5fb3 adb2
000000b0: 444a 57b5 2abb 04b1 bd40 2230 78a0 f1b5
000000c0: bfab 5b31 3d9e 0536 d2af 26b2 d71a 90ba
000000d0: ab60 4531 8dfe 2237 2be1 703a 1f33 b032
000000e0: 475f d231 ab12 5fb8 7843 0b00 f602 0880
000000f0: 91df e4b1 d8ce 1534 477f 7539 2f6c 5438
00000100: 4301 a336 a2c3 0d00 b63e 1d2a fa2f 1434
00000110: 7237 9737 c024 c0b3 448b 3eb8 8674 1ab5
00000120: 637c 21b9 117c 50b7 1d12 4f35 c333 1435
00000130: 36ca da39 399b 642c eb2a 1500 728e 3336
00000140: 5a0a 9a3b d31d 45b9 8855 3cb2 fa13 b232
00000150: 297f 5cb4 a2e6 4bb3 1c95 9eb1 e6c1 fb39
00000160: 655f 23a4 7e8c 6832 9a7b 8ab9 c1ba 64b3
00000170: c295 61b3 5415 d3b7 f123 33b6 e360 d7b5
00000180: 86e6 b1b2 b080 4a37 cbec 9e30 f2d0 83ad
00000190: e4f4 a4ad abb9 8a34 ef16 b5b5 09f1 0580
000001a0: 4298 9439 693c a833 e9b7 14b0 1c8c d4b3
000001b0: 9703 a737 e9eb 9033 4d2f 283b 36d3 46b2
000001c0: dbc2 9eb8 bb05 593a 5b6b e9a6 4e80 9f39
000001d0: 2564 8931 90f7 0532 b154 023b aa83 2dae
000001e0: 3a68 aeae 26a4 a336 3b1e 93b6 2b3e dd39
000001f0: bd33 ca31 7b1b 94b0 dcad 0fbb 1d46 5a33
00000200: 9347 80b7 4e29 1134 f41e 03b1 302e 8e3a
00000210: de53 8c30 5be7 0336 653d 5c32 4a41 71ba
00000220: c283 50ba 5b57 aeb6 f604 13b5 54cd bc32
00000230: d410 13b2 28e8 97b6 0a70 e132 43be b0b8
00000240: 423d c6b6 4efa 1a32 593d bab7 db61 16b7
00000250: 404e 5d39 d9ca b2b5 6a53 a13a c8ce 8bb2
00000260: 4acc 7eb2 7b6e e3b1 ff97 a336 f346 e9b0
00000270: f50d 99b9 780c 12b6 8b3f 0cb4 6bfc 5138
00000280: 4e58 af37 b753 2238 0ea1 45b5 e206 19b0
00000290: 70a6 18b9 cf95 e2b1 9843 3aba 1058 18bb
000002a0: 0834 b9b1 5c0c 15b6 cbdf 8f35 cbb6 e5b7
000002b0: c5eb e6b9 7532 2933 7304 6cb5 6ae7 6432
000002c0: 7157 43b4 9b7d 9f35 9301 18b4 a7b7 c03a
000002d0: 56b0 813a fe5b 99ba 805a 0eb9 a929 0432
000002e0: 52e5 0139 65aa 5231 c436 17b2 113f 9a31
000002f0: 552b 83b8 180c 3039 d331 1b33 7662 8031
00000300: edf5 c439 9551 d4b7 cd13 1534 ea7b 7831
00000310: 7f90 6933 12e0 9d37 9c43 a22f df48 1437
00000320: 22b9 87b3 0ea2 3ab5 00bd 3632 429b 983a
00000330: 60b0 18b7 47d1 1a35 3990 d9b0 38fa 9cb4
00000340: dfbe 8734 44fe 04b6 0c33 f5b6 6029 8235
00000350: 0a42 a6af 651f 41b2 5302 0835 05cc 05b1
00000360: 54b0 d3b5 2584 4938 c6ff 07ad ad6c 2239
00000370: c803 4135 0390 143b e6fc 5632 adc5 ceba
00000380: 0064 af35 45e7 db36 60b4 4234 af07 b431
00000390: 8b9a 143a ef6d 56b7 c91f 1139 8af6 6f30
000003a0: 0576 ee2d 23d5 3fb6 7e29 0ab7 bbab 0232
000003b0: aa44 b3b5 24ba 4b31 93b9 f9ba 8ae6 9fb7
000003c0: eedf cb34 d8eb f537 2bbd 06b8 08f2 f939
000003d0: a708 39b9 4243 03b1 6d7d 73b9 019d c339
000003e0: 3a6e 9eb5 c37f d3b3 63b7 19b3 ff92 d439
000003f0: 0b88 27b9 30ef 6938 b76f 3ab7 1c09 12b4
-5.96554e-09 1.0857577e-08 0.00022821529 -2.0004111e-07 0.001774333 -4.169857e-08 -5.7881175e-09 -9.446467e-08
0.0005178748 -1.2442089e-05 0.00065876584 3.3179379e-07 2.3605368e-37 1.06290685e-10 4.415694e-05 -3.17565e-40
-2.8693426e-08 2.425826e-07 -3.294556e-11 8.420203e-09 -3.3441618e-05 -5.3590227e-10 -6.4413975e-06 -1.09544814e-07
-4.202771e-07 7.2654934e-06 6.0804545e-10 -2.295868e-05 0.002903417 3.672196e-08 7.191782e-05 1.7318562e-06
3.2333114e-06 -5.441535e-10 -1.9321e-09 1.1442181e-06 0.0038385252 4.5240476e-08 0.0002895376 -4.8846693e-10
-6.481743e-09 3.5025255e-06 3.813474e-05 -2.022142e-08 -8.020181e-07 -1.9314919e-09 5.9027255e-10 -1.8002602e-06
3.196632e-09 1.9910651e-06 -9.702449e-09 -0.0010994327 2.8722222e-09 9.71522e-06 0.0009188826 2.0512344e-08
6.122636e-09 -5.318473e-05 1.034394e-39 -7.35746e-40 -6.66109e-09 1.3951956e-07 0.00023412435 5.0645493e-05
4.8579254e-06 1.264041e-39 1.3966158e-13 1.3801028e-07 1.8026421e-05 -8.9473815e-08 -4.542923e-05 -5.7539035e-07
-0.00015400494 -1.2426653e-05 7.713987e-07 5.520962e-07 0.0004173086 3.2486915e-12 1.943941e-39 2.6755993e-06
0.004700941 -0.00018798494 -1.0962488e-08 2.0731012e-08 -2.0535357e-07 -4.747438e-08 -4.615357e-09 0.00048018916
-3.5425793e-17 1.3536122e-08 -0.00026413501 -5.325524e-08 -5.25231e-08 -2.5163092e-05 -2.6694e-06 -1.6046946e-06
-2.0710342e-08 1.2070101e-05 1.1563314e-09 -1.4985766e-11 -1.8753395e-11 2.5839594e-07 -1.3492225e-06 -5.45645e-40
0.000283422 7.834098e-08 -5.410344e-10 -9.897505e-08 1.9909623e-05 6.748434e-08 0.002566296 -1.1573141e-08
-7.570322e-05 0.0008278747 -1.6196722e-15 0.00030422438 3.99861e-09 7.797908e-09 0.0019886906 -3.9452587e-11
-7.931118e-11 4.876888e-06 -4.3844607e-06 0.00042198724 5.8848557e-09 -1.0776228e-09 -0.0021923697 5.0820848e-08
-1.5292118e-05 1.3519204e-07 -1.9080604e-09 0.0010847505 1.0210177e-09 1.9655188e-06 1.2819645e-08 -0.0009203149
-0.0007954204 -5.1957736e-06 -5.4768987e-07 2.1979453e-08 -8.560352e-09 -4.527177e-06 2.6244397e-08 -8.427773e-05
-5.907991e-06 9.0208925e-09 -2.2201495e-05 -8.9634805e-06 0.00021105353 -1.332107e-06 0.0012308185 -1.6275763e-08
-1.4831196e-08 -6.6191297e-09 4.875473e-06 -1.6973146e-09 -0.00029192833 -2.1762953e-06 -1.3061633e-07 5.0064566e-05
2.0902746e-05 3.8701775e-05 -7.3622584e-07 -5.5670857e-10 -0.00014557852 -6.594497e-09 -0.0007105409 -0.0023245849
-5.390124e-09 -2.2209924e-06 1.0719463e-06 -2.7384047e-05 -0.0004404468 3.939427e-08 -8.7923326e-07 1.3323964e-08
-1.8192601e-07 1.1882979e-06 -1.4156676e-07 0.001470317 0.0009894471 -0.001170039 -0.00013575889 7.692884e-09
0.00012387827 3.065588e-09 -8.801809e-09 4.4891597e-09 -6.254638e-05 0.00016789173 3.6134065e-08 3.736484e-09
0.00037567262 -2.5310359e-05 1.388391e-07 3.6159187e-09 5.438096e-08 1.88202e-05 2.9515668e-10 8.838454e-06
-6.320103e-08 -6.952622e-07 1.0636768e-08 0.001164295 -9.1009715e-06 5.767401e-07 -1.5829819e-09 -2.9239322e-07
2.5284587e-07 -1.9817535e-06 -7.3075116e-06 9.697796e-07 -3.0242148e-10 -1.1241217e-08 5.066733e-07 -1.947002e-09
-1.5772043e-06 4.8045204e-05 -7.730655e-12 0.00015490009 7.1903605e-07 0.0022668845 1.2513942e-08 -0.0015775465
1.306762e-06 6.553632e-06 1.8133278e-07 5.239563e-09 0.00056687807 -1.278099e-05 0.00013840118 8.7298047e-10
2.7109879e-11 -2.858528e-06 -8.235102e-06 7.606043e-09 -1.3356523e-06 2.9646197e-09 -0.0019052498 -1.906163e-05
3.7974627e-07 2.93161e-05 -3.2124266e-05 0.00047673308 -0.00017646198 -1.910124e-09 -0.0002322101 0.00037310275
-1.1803997e-06 -9.848693e-08 -3.5789878e-08 0.00040545312 -0.00015977041 5.577429e-05 -1.1112475e-05 -1.3600624e-07

val_conv1.bias f4 [2]
00000000: 072f 0800 1ed8 2c33
7.51554e-40 4.0243428e-08
