current_policy_9.model (torch, 540341 bytes, 15 tensors)

conv1.weight f4 [32, 4, 3, 3]
000000 0b b3 10 3b 21 6a 2b be 63 90 81 3d dc 36 de be
       0.0022079374 -0.16739704 0.06326368 -0.4340123
000010 42 e9 85 bf 7f 2e e4 be 46 96 c3 bd 04 03 51 be
       -1.046181 -0.44566724 -0.09550147 -0.20411307
000020 9e 39 ae bc 88 78 f0 bd 62 98 0f be 4c 0c a6 be
       -0.021267708 -0.117417395 -0.14022973 -0.32431257
000030 f7 f0 ae 3f 6c 8f 66 3f 43 e7 af 3f 3e af 65 be
       1.3667287 0.90062594 1.374245 -0.22430131
000040 37 76 42 be 49 c6 4e be 06 4c 4b 3e 00 51 92 3b
       -0.18990408 -0.20192827 0.1985322 0.0044652224
000050 ff b1 f9 3d 1e b7 a6 3e 4d d2 3d 3f 1c df b8 3e
       0.12192153 0.32561582 0.7414902 0.3610772
000060 65 7f fc bd 1e 39 62 be 0c e0 2d bb 9a ac 49 bd
       -0.12328986 -0.22092101 -0.0026531247 -0.04923687
000070 56 a9 bf bd 6c 1e 16 bd c7 23 45 3c 76 83 27 bd
       -0.0935847 -0.036650106 0.012032456 -0.040896855
000080 87 2f df 3c 1e db 18 3d a2 bb 83 bd f6 99 35 bd
       0.027244342 0.03731834 -0.064322725 -0.04433628
000090 1a 33 00 00 40 15 01 00 8b 40 00 80 bc b2 00 00
       1.8332e-41 9.9459e-41 -2.3154e-41 6.4118e-41
0000a0 4a ab 9f 05 55 56 00 00 19 1b 00 00 fd 64 d6 86
       1.501521e-35 3.097e-41 9.721e-42 -8.064624e-35
0000b0 3a 3f 73 17 5b 77 00 00 d1 2e 00 80 ee 33 00 80
       7.859734e-25 4.2817e-41 -1.6795e-41 -1.8629e-41
0000c0 18 23 5e 0f 42 b7 00 80 b2 0e 00 00 1d 0b 00 80
       1.0952204e-29 -6.574e-41 5.272e-42 -3.987e-42
0000d0 fb 99 00 00 35 1f 00 80 75 8a 00 80 8d 8e 00 00
       5.5238e-41 -1.1195e-41 -4.9669e-41 5.1138e-41
0000e0 7e d1 00 80 f3 a6 00 00 c9 25 00 80 98 ad 00 80
       -7.5152e-41 5.989e-41 -1.3555e-41 -6.2274e-41
0000f0 c0 a0 00 80 b2 a8 00 00 0a 61 00 80 25 7a 00 00
       -5.7666e-41 6.0516e-41 -3.4811e-41 4.3817e-41
000100 45 f2 00 80 58 2e 01 80 b6 db 00 00 5a e5 00 80
       -8.691e-41 -1.0846e-40 7.8817e-41 -8.2276e-41
000110 0e 12 01 80 10 d7 00 80 31 8c 00 00 ed 78 00 80
       -9.8312e-41 -7.715e-41 5.0291e-41 -4.338e-41
000120 47 60 05 94 cc b5 02 00 06 2e 2e 88 d8 af 00 00
       -6.733771e-27 2.48887e-40 -5.241532e-34 6.3081e-41
000130 55 5f 61 a2 66 ac 8a 21 d6 0a 91 9e 6f 88 0b aa
       -3.0543654e-18 9.396877e-19 -1.5356954e-20 -1.2393015e-13
000140 9b 63 ff aa 03 22 90 a0 9a 93 7f 2c 30 80 dc 02
       -4.5366215e-13 -2.4417056e-19 3.6319615e-12 3.239967e-37
000150 48 f3 52 2f 2b 78 13 1a d7 b0 7d 03 d8 5d 2d a4
       1.918582e-10 3.049596e-23 7.455302e-37 -3.7592884e-17
000160 4b d7 b1 ad 23 ae b3 ab 9d c4 00 80 eb c0 00 00
       -2.021818e-11 -1.2767048e-12 -7.0532e-41 6.9206e-41
000170 14 7d 00 00 3d 19 e4 29 87 c8 00 00 0f 32 00 80
       4.487e-41 1.0129612e-13 7.1936e-41 -1.7958e-41
000180 34 20 65 8b 23 c8 63 0d e4 24 e2 18 02 6f 5c 1a
       -4.4128023e-32 7.019068e-31 5.845688e-24 4.5584605e-23
000190 ec 72 d6 9b c6 c4 a0 1a 6c 2a 09 1b de 74 1e 9e
       -3.5477597e-22 6.6492354e-23 1.1346082e-22 -8.388618e-21
0001a0 3e 65 a0 99 c6 08 a1 1a e7 00 91 9c 22 d5 dd 1a
       -1.6584504e-23 6.6602214e-23 -9.595528e-22 9.174779e-23
0001b0 51 a1 48 3f ce 85 01 be 7f 62 4f 3e 53 8e 61 3d
       0.7837115 -0.12648699 0.20252417 0.05506737
0001c0 34 88 c0 bc a3 4a 56 be 59 4a 4c 3d ec 65 cb be
       -0.023502447 -0.20926909 0.04987559 -0.39726198
0001d0 2c bd 90 be b7 2c 7e be 1b 42 b3 be 94 95 98 be
       -0.28269327 -0.24821745 -0.35011372 -0.2980162
0001e0 23 1c b6 be d7 fc c8 be 59 8c ae be 66 aa ab be
       -0.35568342 -0.39255401 -0.34091452 -0.3352844
0001f0 d4 e3 85 be 5f 9b b9 be 87 40 9a bc e6 88 59 bd
       -0.26150382 -0.3625135 -0.018829597 -0.053109072
000200 f2 09 0d bd 37 69 60 bc 45 c3 23 bc 26 48 cb 3d
       -0.034433313 -0.01369696 -0.009995286 0.099258706
000210 c0 71 b2 bc 89 52 87 3d 5d 44 0b bd fe fe 4c be
       -0.021782756 0.06607539 -0.034000743 -0.20019147
000220 7a 2a 03 bf d0 6e d9 be ee 7c 0f bf c9 35 23 bf
       -0.5123669 -0.42467356 -0.5605 -0.63753945
000230 89 56 10 bf fd 30 d2 be b7 f3 33 bf db ce 0c bf
       -0.5638204 -0.41053 -0.70293754 -0.55003136
000240 4e 06 20 3d b9 37 15 3e 7a ee b2 3d f7 a9 fe 3d
       0.039068513 0.14572038 0.08736892 0.12434762
000250 6b 77 b6 bf cc 53 0e 3e d7 9d 29 3d 19 9e b6 3d
       -1.4255193 0.13899153 0.041410293 0.089168735
000260 81 40 37 3d e8 be fe 3d 6d 0b cd bb bc 2f 21 3d
       0.04473925 0.12438756 -0.0062574656 0.039352164
000270 fc 6c 1c 3e ee ab d3 bf 36 a4 6c 3d 32 3c 87 3c
       0.15275949 -1.6536844 0.05777379 0.016508196
000280 99 3b 62 3d 66 8a 8a 3d 8e c9 6d 3b b3 e1 50 3d
       0.055232618 0.06764679 0.0036283466 0.050996494
000290 94 45 b3 ba bb 02 82 3e 7a c6 d6 bd d4 69 67 3e
       -0.0013677352 0.25392708 -0.10487075 0.22598964
0002a0 6e 2b 16 3d 9e 10 54 3e c4 23 1a bd 4c d7 80 bc
       0.03666251 0.20709464 -0.037631765 -0.015727662
0002b0 7e 81 c5 3d 24 0b 0a bd bf 92 c3 3c 1e 5f 27 3e
       0.09643839 -0.03370203 0.023873685 0.16344878
0002c0 8c 0d 26 bd a8 4e 8e bd af fd 91 3d 35 0a 1c 3d
       -0.040540263 -0.06948596 0.071284644 0.03809567
0002d0 38 10 00 80 6a 7b 00 80 a1 b9 00 80 1d 46 00 80
       -5.818e-42 -4.4273e-41 -6.6591e-41 -2.5152e-41
0002e0 89 a5 00 80 d6 42 00 80 37 36 00 00 c3 12 00 80
       -5.9383e-41 -2.3976e-41 1.9449e-41 -6.73e-42
0002f0 49 99 00 80 18 c9 00 00 c0 8e 00 80 ef 3c 00 80
       -5.4988e-41 7.2139e-41 -5.1209e-41 -2.1859e-41
000300 7c 3a 00 80 36 c7 00 00 0b 5e 00 00 6b bf 00 80
       -2.098e-41 7.1463e-41 3.3736e-41 -6.8668e-41
000310 b8 9d 00 00 02 cf 00 80 0c 05 01 00 a4 bc 00 80
       5.6579e-41 -7.426e-41 9.3646e-41 -6.7672e-41
000320 e5 31 02 80 ad 75 01 80 59 7c 00 00 c3 75 00 80
       -2.0157e-40 -1.3405e-40 4.4608e-41 -4.2245e-41
000330 c3 9a 00 80 b7 c0 00 80 11 91 00 00 cb 41 00 00
       -5.5518e-41 -6.9133e-41 5.204e-41 2.3602e-41
000340 fc 90 00 80 05 45 00 80 0a a0 00 00 ce b8 00 00
       -5.201e-41 -2.476e-41 5.7411e-41 6.6295e-41
000350 9c ab 00 00 c8 fc 00 00 9d be 00 00 48 c9 00 00
       6.1562e-41 9.0681e-41 6.8379e-41 7.2206e-41
000360 89 b3 3d a1 65 67 af b0 57 98 2d 30 75 76 17 2c
       -6.4273304e-19 -1.2762312e-09 6.315352e-10 2.1524147e-12
000370 c2 50 15 11 0c 87 33 1f 2e 01 07 14 db a3 ba a7
       1.1778913e-28 3.8016433e-20 6.815991e-27 -5.1803023e-15
000380 64 59 6b a5 fe 3c a4 99 b8 98 48 93 04 f2 bb 93
       -2.0413288e-16 -1.6981837e-23 -2.5318845e-27 -4.7444082e-27
000390 f6 51 49 0f ee 9b b9 30 00 6d 61 a1 97 fd b9 ab
       9.92585e-30 1.350484e-09 -7.6377226e-19 -1.3215426e-12
0003a0 8c 7f 0d a2 68 2a 06 9f ec 97 00 00 23 19 00 80
       -1.9176586e-18 -2.841068e-20 5.45e-41 -9.017e-42
0003b0 64 5a d2 05 ec bc 00 00 aa eb 66 00 f4 ff 19 00
       1.978151e-35 6.7772e-41 9.451761e-39 2.387706e-39
0003c0 00 b4 00 00 64 b0 00 00 06 22 00 80 64 95 00 80
       6.4572e-41 6.3277e-41 -1.2205e-41 -5.3591e-41
0003d0 5f 40 00 80 81 a9 00 00 0f 95 00 80 ea bc 00 00
       -2.3092e-41 6.0807e-41 -5.3472e-41 6.777e-41
0003e0 d9 79 00 80 78 b5 00 00 ac 4c 00 00 7f 17 00 00
       -4.3711e-41 6.5099e-41 2.7505e-41 8.429e-42
0003f0 60 8e 0c a4 cb a1 30 a7 df d1 58 a1 60 18 2d ab
       -3.0478257e-17 -2.4512615e-15 -7.346141e-19 -6.1495774e-13

conv1.bias f4 [32]
000000 54 3e b1 bf 5f 4b 70 aa ed b1 10 b8 22 df 3a bf
       -1.3847146 -2.1342432e-13 -3.449798e-05 -0.72996724
000010 02 f9 b6 3e 09 34 52 a4 a6 3c 46 b9 07 13 aa ba
       0.35736853 -4.5580567e-17 -0.00018905345 -0.0012975641
000020 f9 90 76 bf 14 62 5a bb 2f 48 85 bf 05 ad 38 bf
       -0.9631496 -0.003332262 -1.0412654 -0.72139007
000030 4c 9e 4c bf f7 bd 6a bf b4 de c2 ba d7 bc 09 bf
       -0.7992904 -0.91696113 -0.0014867396 -0.5380377
000040 ad 90 8d ac c9 ed d0 bd 10 a4 a5 99 5d cc 32 be
       -4.0235233e-12 -0.10201604 -1.7126864e-23 -0.17460771
000050 71 87 3c bc 2b 0b ec bf 9a 12 12 bf cd 67 d9 bf
       -0.011506901 -1.8440908 -0.57059634 -1.6984802
000060 c7 07 5b bf ca 42 00 bf 34 01 af bf 0f 6b 73 bf
       -0.8555874 -0.5010191 -1.3672242 -0.95085233
000070 83 4e 8b bd d6 e6 9e 97 13 17 03 bf 9c 5e bb bf
       -0.06802084 -1.0268782e-24 -0.51207083 -1.4638247

conv2.weight f4 [64, 32, 3, 3]
000000 b2 37 a0 a3 46 df c8 a4 f5 31 16 a8 fb dc 4a 9e
       -1.7370823e-17 -8.7114414e-17 -8.337505e-15 -1.0739489e-20
000010 2b af 9b a7 dd 8a 95 ac ed 66 8a 93 e3 99 9b a3
       -4.321106e-15 -4.2502516e-12 -3.493759e-27 -1.6870307e-17
000020 48 98 8e ad cb 6c 5e b6 04 6c 6e 39 4b ba f8 31
       -1.6211157e-11 -3.3143904e-06 0.00022737688 7.238929e-09
000030 c2 6b 04 3a 2a 20 92 32 9e 4f cf 34 77 dc 24 34
       0.00050514576 1.7011264e-08 3.8614684e-07 1.5353895e-07
000040 aa 9b c7 38 b9 6d ac b2 e0 03 00 00 a5 3e 00 80
       9.518054e-05 -2.0073331e-08 1.39e-42 -2.2473e-41
000050 a0 3b 00 00 a7 a4 00 80 5d b7 00 80 04 1a 00 80
       2.139e-41 -5.9066e-41 -6.5778e-41 -9.333e-42
000060 b6 93 00 80 ed 64 00 80 40 6e 00 80 44 ee 1e b5
       -5.2989e-41 -3.6205e-41 -3.955e-41 -5.920631e-07
000070 98 4d 97 b6 f7 ba e2 b6 e3 cd 1f b8 14 14 09 b9
       -4.509184e-06 -6.7570904e-06 -3.81003e-05 -0.00013072818
000080 56 48 63 b8 23 12 e6 b8 b5 1d 9a b9 4d 1a 84 b9
       -5.4188386e-05 -0.00010970633 -0.00029395302 -0.00025196598
000090 0e 29 b8 bc 09 a6 eb bc f7 cf f3 bc 3f 91 d0 bc
       -0.022480514 -0.028765695 -0.029762251 -0.025459884
0000a0 ab 47 c7 bc ee 7d bb bc cb ea b7 bc e4 b9 de bc
       -0.024326166 -0.022887196 -0.022450825 -0.027188249
0000b0 b1 9d b5 bc 15 6f 50 35 5c 6b 30 bb c8 bc 0a 3a
       -0.02216992 7.7647684e-07 -0.002691946 0.0005292413
0000c0 7f c3 5f b3 31 9a c1 38 66 93 fe 2f 1b b8 ba 31
       -5.2099036e-08 9.2316775e-05 4.6307064e-10 5.434243e-09
0000d0 f9 f4 bc b4 ef 26 fc b7 e5 57 01 80 5a 29 00 80
       -3.519597e-07 -3.005887e-05 -1.23366e-40 -1.4834e-41
0000e0 b8 86 01 00 4d 9c 01 00 41 ea 00 00 9f 26 00 00
       1.40163e-40 1.47906e-40 8.4034e-41 1.3855e-41
0000f0 14 38 00 00 19 aa 00 00 0b 8a 01 80 8c bc 0b 3a
       2.0117e-41 6.102e-41 -1.41356e-40 0.0005330525
000100 1a 88 27 b0 c4 e6 1c 31 79 79 b7 31 bb fc f1 35
       -6.094766e-10 2.2832163e-09 5.339811e-09 1.8029453e-06
000110 08 6e 3e bb 4e d7 27 35 6a ed aa 33 65 39 2a 37
       -0.0029057283 6.252566e-07 7.959427e-08 1.0146153e-05
000120 ba 43 7d b8 06 8a 08 b9 27 7f 2e b9 f7 3a 4c b9
       -6.0382976e-05 -0.00013021388 -0.00016641301 -0.00019476922
000130 23 3b 61 b9 ae c0 f7 b8 11 03 9d b9 85 e2 e2 b9
       -0.00021479702 -0.00011813767 -0.00029947658 -0.0004327485
000140 28 4e eb b9 8f 1f 00 80 a8 28 00 00 87 4d 00 80
       -0.00044880924 -1.1321e-41 1.4585e-41 -2.7812e-41
000150 97 36 00 80 87 98 00 80 90 01 00 80 77 85 00 00
       -1.9583e-41 -5.4717e-41 -5.6e-43 4.7878e-41
000160 f0 b6 00 80 58 8b 00 80 54 a7 82 a8 49 34 b8 ac
       -6.5626e-41 -4.9987e-41 -1.4505466e-14 -5.2353994e-12
000170 e5 c7 03 af ba ee a5 b0 04 19 2b b0 5f be ae b1
       -1.1985397e-10 -1.207318e-09 -6.2244987e-10 -5.085709e-09
000180 04 b2 ed af 5e 6a 7d b1 88 12 23 b3 cf a9 50 ae
       -4.3236537e-10 -3.6876808e-09 -3.796825e-08 -4.7444545e-11
000190 62 8c c4 b2 a5 80 4f b4 b3 29 c1 b0 84 16 e6 b2
       -2.2881242e-08 -1.9325178e-07 -1.405445e-09 -2.6785763e-08
0001a0 b9 79 06 b2 c9 cb 02 b5 20 af 11 b4 20 9e 3a b4
       -7.827503e-09 -4.872532e-07 -1.3567887e-07 -1.7380125e-07
0001b0 52 c5 ed ac 09 9a f4 ac ee da 9c ac 7b 50 32 b2
       -6.757852e-12 -6.9519984e-12 -4.4580927e-12 -1.0379263e-08
0001c0 64 86 33 b4 bb 6d 34 b3 09 45 87 b3 b4 5a 67 b4
       -1.6719565e-07 -4.2009315e-08 -6.298985e-08 -2.1546549e-07
0001d0 68 78 b5 b1 d1 ed 24 16 7f 7d 4d 94 18 9a 83 94
       -5.281482e-09 1.3322856e-25 -1.0374605e-26 -1.3288399e-26
0001e0 26 80 5d a1 7f 19 81 9e b0 4b da a5 a0 99 04 a6
       -7.5047316e-19 -1.3668951e-20 -3.786826e-16 -4.60049e-16
0001f0 8c f1 f7 a1 c3 a7 11 a5 7d c5 00 00 ba 97 01 00
       -1.6801308e-18 -1.2633585e-16 7.0845e-41 1.46265e-40
000200 24 aa 01 80 0f 33 01 80 2c 69 01 00 05 5d 00 80
       -1.5287e-40 -1.10152e-40 1.29564e-40 -3.3369e-41
000210 d2 27 02 00 8e 11 02 00 ee 19 02 00 b6 3d 35 ae
       1.97956e-40 1.89968e-40 1.92973e-40 -4.1209446e-11
000220 85 c7 40 32 8f b4 fc b9 2c 18 a4 39 2d 93 06 b0
       1.1221236e-08 -0.00048199712 0.00031298527 -4.8958065e-10
000230 b4 93 be b5 77 59 5e b9 58 0b 8f b8 5c 99 62 39
       -1.419909e-06 -0.00021204898 -6.820884e-05 0.0002161017
000240 cf f9 a5 39 d4 02 8e b0 02 9d f2 b3 b3 63 88 b7
       0.00031657374 -1.0332664e-09 -1.1297563e-07 -1.625889e-05
000250 27 29 11 b6 6d d6 85 3a c7 5d cc 37 56 07 c3 af
       -2.1630638e-06 0.0010210999 2.4362364e-05 -3.5475506e-10
000260 42 e0 aa 3a 12 1a 00 00 dc e6 00 00 29 1d 00 80
       0.0013036805 9.352e-42 8.2817e-41 -1.046e-41
000270 62 a5 00 00 46 3b 00 80 bb cc 00 80 8f 57 00 80
       5.9328e-41 -2.1263e-41 -7.3443e-41 -3.141e-41
000280 32 e6 00 00 eb 69 00 80 95 74 02 80 5a fe 02 00
       8.2579e-41 -3.7996e-41 -2.25493e-40 2.74915e-40
000290 2d f9 01 00 c1 73 01 80 62 12 00 00 50 dd 00 00
       1.81223e-40 -1.3336e-40 6.595e-42 7.9392e-41
0002a0 0c 9e 01 00 73 78 02 80 4a e8 02 80 c9 b5 50 38
       1.48532e-40 -2.2688e-40 -2.67e-40 4.9760365e-05
0002b0 a3 7d be 34 ec 1c 15 b3 f8 5d 7c b4 05 fc ff b2
       3.548167e-07 -3.471807e-08 -2.3503515e-07 -2.9800512e-08
0002c0 d5 97 3e 3b 45 94 0e b2 15 92 db 35 00 7a 9f b2
       0.0029082198 -8.2992e-09 1.6359287e-06 -1.8565515e-08
0002d0 65 0c 01 00 3b ec 00 00 2a 31 00 00 4f ee 00 80
       9.6282e-41 8.4744e-41 1.7637e-41 -8.5489e-41
0002e0 94 93 00 00 ed 8b 00 00 fb 0e 00 80 4d 15 00 80
       5.2941e-41 5.0196e-41 -5.374e-42 -7.641e-42
0002f0 0b 7a 00 00 2a 5e 86 06 5c 0e 73 15 d3 dd c9 93
       4.3781e-41 5.054356e-35 4.9084787e-26 -5.095827e-27
000300 ea b1 10 06 be 93 74 94 94 06 00 9e 54 fe b3 0b
       2.72141e-35 -1.2347989e-26 -6.777624e-21 6.933096e-32
000310 d9 7d af 9b 3c 70 89 9b 47 2e 5f 30 57 b6 96 b4
       -2.9032649e-22 -2.2737279e-22 8.119269e-10 -2.8072347e-07
000320 5b 17 b3 36 37 09 15 ba fc d4 7a b1 19 05 27 3a
       5.3373346e-06 -0.0005685272 -3.6500856e-09 0.0006371304
000330 6b d4 db 35 7e f0 53 ae 28 77 00 38 03 87 60 83
       1.6378593e-06 -4.8189445e-11 3.062855e-05 -6.598267e-37
000340 8f 80 0e 85 84 98 cb 0a cd cb bb 81 fc ab 6a 05
       -6.7004204e-36 1.9605559e-32 -6.898539e-38 1.1034216e-35
000350 32 a1 ef 10 2d 6f fc 84 41 72 f2 93 89 af 38 9c
       9.451724e-29 -5.9347014e-36 -6.120205e-27 -6.1107367e-22
000360 66 05 bd 06 16 bd 95 81 5d fe 13 00 fc a0 8b a1
       7.110183e-35 -5.500528e-38 1.836123e-39 -9.461619e-19
000370 11 06 37 a3 e3 dd e4 a0 fe 5d 25 a2 6c 59 88 99
       -9.9217345e-18 -3.8771535e-19 -2.2411429e-18 -1.4098188e-23
000380 03 33 3d 9d a1 69 d8 b8 e4 13 15 b9 27 97 bd b8
       -2.5040314e-21 -0.000103193575 -0.00014217157 -9.0403766e-05
000390 62 d9 38 b8 23 48 4f b8 fa 1b 24 b9 d9 0d 10 b7
       -4.4071472e-05 -4.941983e-05 -0.00015650681 -8.586293e-06
0003a0 d2 82 8c b7 cd 83 22 b8 92 69 6f ac 71 1d cc ab
       -1.6750218e-05 -3.874656e-05 -3.4022546e-12 -1.4503243e-12
0003b0 fa e9 e8 a9 08 b8 5b ab dd d8 61 ad 11 a9 9f a8
       -1.0343458e-13 -7.8059824e-13 -1.28379226e-11 -1.7725867e-14
0003c0 88 1a 2f ae 78 7b 69 af 84 d4 f4 a8 a7 9c a7 b3
       -3.9813958e-11 -2.1235091e-10 -2.7181606e-14 -7.8050384e-08
0003d0 70 a5 5a b3 f5 dd 97 b3 ca bb 5d b3 3f 40 54 b4
       -5.0907545e-08 -7.071859e-08 -5.1626365e-08 -1.9767411e-07
0003e0 d2 01 b5 b1 b8 76 d0 b2 6d 7e 15 b5 fc 63 3c b5
       -5.2680003e-09 -2.4268374e-08 -5.56908e-07 -7.0180954e-07
0003f0 c4 24 02 00 51 d8 01 80 07 e5 01 80 83 29 02 00
       1.9686e-40 -1.69435e-40 -1.73995e-40 1.98563e-40

conv2.bias f4 [64]
000000 ac 3c 4b bd aa 87 3c bf af 6c cd af 5f 29 30 9c
       -0.049618408 -0.73644507 -3.7366507e-10 -5.8286986e-22
000010 dd 8f 12 bf 6b d3 13 bf 1a c5 1f be 6a 98 1c b0
       -0.5725077 -0.57744473 -0.15602532 -5.6969063e-10
000020 b7 01 51 bb 4b 0d fd bf 47 ef 6b b5 c8 51 4c be
       -0.0031891891 -1.9769682 -8.7892516e-07 -0.19953072
000030 b2 a3 1e 9a d2 49 8e be b0 fa ac bd 42 94 70 bd
       -3.2805866e-23 -0.27790695 -0.08446252 -0.05873514
000040 90 bc a3 be 3d 1b 6a 9d bb c9 c6 a2 a0 a9 10 b4
       -0.319798 -3.0983724e-21 -5.38816e-18 -1.3472754e-07
000050 c7 b8 38 ba f4 f3 ad bf e8 83 84 bb e2 ed e6 aa
       -0.0007046577 -1.3590074 -0.0040440448 -4.1021272e-13
000060 09 de 1c b4 1f ac 99 b8 15 df 99 b3 cc b2 82 be
       -1.4609408e-07 -7.3276686e-05 -7.165196e-08 -0.25527036
000070 4c 23 cf be d9 2c b5 bd cb 7f 14 be 6a 39 74 bb
       -0.40456617 -0.08846445 -0.14501874 -0.0037265667
000080 7b 88 1c b8 bd d9 0a bf 3c 81 69 bd 0f cc a1 bb
       -3.7320406e-05 -0.5423849 -0.057008013 -0.0049376558
000090 cb cd 79 bf 59 ca 70 be 27 55 a9 bd 9d b3 16 bf
       -0.9757964 -0.2351469 -0.08268195 -0.5886782
0000a0 54 c9 97 3f 0f 21 b4 aa 7a fa 0f bf 5a b0 03 b2
       1.1858315 -3.1997362e-13 -0.5624157 -7.665301e-09
0000b0 48 64 0c c0 86 6b cb b2 33 84 e8 bd e5 28 1d be
       -2.1936207 -2.3681206e-08 -0.1135334 -0.15347631
0000c0 e2 c7 0b bf 1c f2 9d bf 7c 25 cd 3e 1a b8 e6 a4
       -0.5460187 -1.2339511 0.4006766 -1.0005848e-16
0000d0 b8 c6 30 bb 9b c8 3d b8 cd 6c 1f bd c7 cd a7 af
       -0.0026973914 -4.524794e-05 -0.03892212 -3.0523337e-10
0000e0 a4 74 9e be e6 b2 12 c0 99 3b 80 b3 71 b9 45 b3
       -0.30948365 -2.292169 -5.971305e-08 -4.6036295e-08
0000f0 a3 f1 dc be 68 b7 a9 bb cb f6 ec bd ed 30 85 b5
       -0.43153104 -0.0051793344 -0.115705095 -9.923511e-07

conv3.weight f4 [128, 64, 3, 3]
000000 6d 12 38 a3 d0 ee d3 1b 10 e7 de 18 5a 70 86 19
       -9.978562e-18 3.506135e-22 5.761897e-24 1.3900654e-23
000010 da 4b 02 00 91 73 16 ae f8 e1 03 00 25 36 06 80
       2.10881e-40 -3.4208695e-11 3.56569e-40 -5.70436e-40
000020 34 cb 83 1e f0 8e 13 3a cb 12 01 3a c9 10 24 b9
       1.3954207e-20 0.00056289043 0.000492376 -0.00015646512
000030 99 33 29 3a bf 06 88 ba 55 91 29 3a 27 18 d8 39
       0.0006454527 -0.0010377987 0.00064684945 0.00041216725
000040 9a 21 2e 3a 6d 57 16 39 0a 91 01 00 4f f0 01 80
       0.000664258 0.00014337683 1.43866e-40 -1.78042e-40
000050 d0 40 00 80 4a c6 01 00 8f b1 02 00 5d 89 02 00
       -2.325e-41 1.62968e-40 2.47367e-40 2.32948e-40
000060 fa 3b 02 80 da 0f 00 00 12 2a 02 80 47 fd 01 80
       -2.05187e-40 5.686e-42 -1.98763e-40 -1.82694e-40
000070 62 15 02 80 b5 fa 00 80 e1 9e 00 00 b5 59 00 00
       -1.91342e-40 -8.9937e-41 5.6995e-41 3.2181e-41
000080 78 0b 02 00 e1 9f 00 80 47 3d 02 80 fd 8e 02 80
       1.87785e-40 -5.7354e-41 -2.05653e-40 -2.34966e-40
000090 9c e4 00 3d 7c 33 bc ba ca 6d b4 bc 3c 0f 04 bc
       0.03146802 -0.0014358605 -0.022025008 -0.008060273
0000a0 09 8e e1 bd d5 11 32 bc 08 bb d0 bc 04 40 40 bb
       -0.11013419 -0.010868509 -0.025479808 -0.0029335031
0000b0 76 a5 ec 3c 6e 78 03 00 d5 43 01 80 5c f6 02 00
       0.028887492 3.18709e-40 -1.16169e-40 2.72048e-40
0000c0 2c 5e 00 80 b5 3e 04 80 2a 84 07 80 d1 b2 04 80
       -3.3783e-41 -3.89837e-40 -6.9026e-40 -4.31489e-40
0000d0 c4 89 0a 00 0d ea 00 80 e5 25 06 00 e2 e4 07 00
       9.67776e-40 -8.3962e-41 5.64607e-40 7.24956e-40
0000e0 84 75 01 00 5a e2 01 00 4a cf 01 00 85 81 04 00
       1.33992e-40 1.73035e-40 1.66197e-40 4.13805e-40
0000f0 08 16 01 00 01 14 01 00 33 25 02 80 18 14 01 80
       9.9739e-41 9.9012e-41 -1.97016e-40 -9.9044e-41
000100 1a 98 02 00 15 78 00 00 7d 75 01 80 55 f5 01 00
       2.38235e-40 4.3077e-41 -1.33982e-40 1.79844e-40
000110 db ca 01 00 f4 22 00 00 df 40 02 80 9a 5a 01 80
       1.64606e-40 1.2539e-41 -2.06942e-40 -1.24337e-40
000120 05 ee 4d 12 6c 58 65 10 42 f4 dd 11 14 55 c5 11
       6.4979976e-28 4.5230405e-29 3.5018188e-28 3.1133553e-28
000130 26 6d 7f 90 05 19 ea 8e 4b 0d 81 11 d1 73 5a 10
       -5.0373968e-29 -5.7709547e-30 2.0360804e-28 4.308214e-29
000140 5e 87 15 10 09 d3 1f 3a 38 d5 48 bb 02 b2 8b bc
       2.9489352e-29 0.00060968153 -0.0030644666 -0.017052654
000150 9c a6 a0 bb 42 32 b0 3b a2 86 fd 38 5a 04 7c 3c
       -0.004902674 0.005377085 0.000120890574 0.015381897
000160 30 b2 cb 3c e4 c4 86 3a 00 0b 00 80 5d be 01 80
       0.02486524 0.0010282067 -3.946e-42 -1.60125e-40
000170 3c 80 00 00 59 3b 01 00 91 dc 01 80 ab ce 01 00
       4.6002e-41 1.13125e-40 -1.7096e-40 1.65974e-40
000180 ac d6 00 00 fd bb 00 80 98 98 01 80 28 e4 94 96
       7.701e-41 -6.7437e-41 -1.46576e-40 -2.4054676e-25
000190 78 84 3b 97 0f 0c 09 97 3b d8 51 16 b6 0a ec 95
       -6.059016e-25 -4.428231e-25 1.6951116e-25 -9.533654e-26
0001a0 d5 41 1e 17 cb bc 1e 96 85 87 0d 17 95 93 1e 17
       5.1135645e-25 -1.2822711e-25 4.5730607e-25 5.123883e-25
0001b0 b9 12 00 00 7f 63 00 00 c9 8f 00 80 13 db 01 00
       6.716e-42 3.5692e-41 -5.158e-41 1.70425e-40
0001c0 ea 8c 02 80 0e 25 01 00 a7 52 00 00 f0 7b 02 80
       -2.34221e-40 1.05128e-40 2.965e-41 -2.28131e-40
0001d0 76 0e 02 80 ef c8 01 00 e9 6c 06 00 8f 9f 04 80
       -1.88859e-40 1.63917e-40 5.90083e-40 -4.24581e-40
0001e0 0f 59 07 80 d9 cb 02 00 b8 e3 03 00 f1 6f 0d 80
       -6.74797e-40 2.56798e-40 3.57197e-40 -1.234018e-39
0001f0 ab 4e 01 00 9f f0 eb 3a 66 cc 02 00 2c e8 01 80
       1.20056e-40 0.0018000788 2.56995e-40 -1.75123e-40
000200 f7 25 02 00 07 79 00 00 78 1e 00 00 de 46 00 00
       1.9729e-40 4.3416e-41 1.093e-41 2.5422e-41
000210 87 19 02 80 ff 76 02 80 49 1d 03 80 38 0f 02 00
       -1.92828e-40 -2.26359e-40 -2.86012e-40 1.8913e-40
000220 64 9f 01 80 3c e7 01 00 7a 17 00 00 3d 1d 02 00
       -1.49014e-40 1.74787e-40 8.422e-42 1.9416e-40
000230 03 43 02 00 24 5b 03 80 ed a1 01 00 c3 13 01 00
       2.0771e-40 -3.08202e-40 1.49924e-40 9.8925e-41
000240 55 0c c6 3a 95 07 62 3c 23 a9 07 bb 69 84 98 39
       0.0015109876 0.013795753 -0.0020700179 0.00029090352
000250 e3 f4 af 3b 11 bf 0b bd 51 fb 07 3c d4 70 c2 b8
       0.005369769 -0.034117762 0.008299665 -9.271657e-05
000260 15 97 bf bc 79 db 00 00 15 9f 01 00 dc 91 02 80
       -0.023387471 7.8732e-41 1.48903e-40 -2.35995e-40
000270 ef fb 00 80 9b a8 01 80 11 58 00 00 81 e4 01 00
       -9.0377e-41 -1.5232e-40 3.1592e-41 1.73807e-40
000280 40 56 00 80 d9 b9 00 80 51 40 02 80 b7 60 01 80
       -3.094e-41 -6.667e-41 -2.06743e-40 -1.2653e-40
000290 b9 64 01 80 9c 7a 00 80 b3 19 00 00 8d ba 01 80
       -1.27968e-40 -4.3984e-41 9.219e-42 -1.58757e-40
0002a0 cf 2c 01 00 aa 42 01 00 62 0d 02 80 d6 3a 2a 81
       1.0791e-40 1.1575e-40 -1.88472e-40 -3.1266281e-38
0002b0 81 17 a7 80 b5 44 be 00 96 e0 48 80 6e 20 4b 00
       -1.534496e-38 1.7473392e-38 -6.692722e-39 6.899296e-39
0002c0 b6 7f 4d 80 dd ed ea 00 46 cc c1 00 71 78 9f 00
       -7.117147e-39 2.1574835e-38 1.779753e-38 1.464505e-38
0002d0 a3 76 00 80 21 11 be b2 a2 5f 65 33 50 7c 19 b0
       -4.2559e-41 -2.21267e-08 5.3405195e-08 -5.5837734e-10
0002e0 55 7b 9b b1 bd a2 07 b3 2b b4 01 80 c7 9f 8b 2b
       -4.525115e-09 -3.1580146e-08 -1.56468e-40 9.920891e-13
0002f0 52 6f 71 b1 d5 c6 ed 3c 09 e7 d5 3c e1 58 d4 3c
       -3.5133394e-09 0.029025475 0.026111143 0.025921287
000300 2a 23 53 bd 75 2b f1 bc 8f 42 19 3c 8e 96 23 bc
       -0.051547207 -0.029439667 0.009354248 -0.0099846255
000310 59 a5 d8 bb 2d 39 f2 bd 11 fc 00 80 70 3d 00 80
       -0.006611508 -0.11827312 -9.0424e-41 -2.204e-41
000320 79 27 00 80 20 24 02 00 b5 57 00 00 3e e6 00 00
       -1.416e-41 1.9663e-40 3.1463e-41 8.2595e-41
000330 d8 32 02 00 08 5f 02 80 5f 18 00 80 69 83 02 00
       2.0191e-40 -2.17762e-40 -8.743e-42 2.30812e-40
000340 fd bc 00 80 d8 7c 00 80 22 cb 02 80 23 08 01 80
       -6.7796e-41 -4.4785e-41 -2.56541e-40 -9.4754e-41
000350 84 3b 02 00 e5 90 02 80 fe d2 04 00 ea 50 00 00
       2.05021e-40 -2.3565e-40 4.43032e-40 2.9026e-41
000360 34 4e 01 80 53 36 02 80 71 8c 01 00 b9 02 02 00
       -1.1989e-40 -2.03159e-40 1.42216e-40 1.84648e-40
000370 8d 27 02 80 7f 2c 00 00 31 bd 02 80 f4 90 00 80
       -1.97859e-40 1.5962e-41 -2.5154e-40 -5.2e-41
000380 62 26 01 00 a0 03 01 80 eb ff 01 00 88 49 01 80
       1.05605e-40 -9.3136e-41 1.83642e-40 -1.18214e-40
000390 dd 2d 01 80 10 05 00 80 2b 0b 01 80 e2 a6 01 00
       -1.08288e-40 -1.816e-42 -9.5842e-41 1.51702e-40
0003a0 ab 38 00 00 1d 82 02 00 64 40 00 80 4f 66 01 80
       2.0329e-41 2.30347e-40 -2.3099e-41 -1.28537e-40
0003b0 b7 b6 01 80 d3 5e 01 00 0c 65 00 80 55 c1 02 00
       -1.57381e-40 1.25852e-40 -3.6249e-41 2.53025e-40
0003c0 ab 90 01 80 36 50 02 00 42 cd 00 80 46 fb c1 ac
       -1.43733e-40 2.12445e-40 -7.3633e-41 -5.513287e-12
0003d0 1f 11 b1 b4 d7 26 f5 3a a3 73 c3 9a 68 67 c6 26
       -3.2981276e-07 0.0018703592 -8.083693e-23 1.3767038e-15
0003e0 81 38 a9 b6 f9 12 d3 a3 76 9f 8f b1 12 c2 98 af
       -5.0431704e-06 -2.2884701e-17 -4.1799764e-09 -2.7786534e-10
0003f0 29 d9 5d bc 15 19 0e bd 6e db a3 3c 00 9c d3 3c
       -0.013540545 -0.03469189 0.020002093 0.025831223

conv3.bias f4 [128]
000000 49 60 86 be 14 b9 5b bf f9 e4 94 b8 32 70 b8 bd
       -0.26245335 -0.8582928 -7.0998394e-05 -0.090057746
000010 9f 0e 89 bc d2 0d 0d be 63 eb 22 be 16 58 4f b9
       -0.016730605 -0.13774803 -0.15910105 -0.00019773873
000020 e6 53 ea bb 26 35 51 b8 ed c1 f9 3c 92 70 4b bf
       -0.0071511148 -4.987898e-05 0.030487979 -0.79468644
000030 8f c4 56 bf b9 a3 50 be b7 83 80 ad 7e 3f ef 3e
       -0.83893675 -0.20374955 -1.4610408e-11 0.46728128
000040 4e 9e ba bd 95 f8 de b8 04 c9 ab be cd 38 bc bc
       -0.091122255 -0.00010632087 -0.335518 -0.022976303
000050 25 51 ef bb 67 fe 88 bb f7 32 16 be 25 6d 80 bf
       -0.0073033744 -0.0041807177 -0.14667879 -1.0033308
000060 6b 15 e8 be c1 33 de bd d2 97 8a be 4a 1a 7c bf
       -0.4532884 -0.10849715 -0.27068955 -0.98477614
000070 4f c7 31 bf 4c 32 6d b4 a2 3d bb bc 01 f2 0b b8
       -0.69444746 -2.2090643e-07 -0.022856537 -3.3365566e-05
000080 bb b0 7e ae a0 e4 54 bc 49 4a 97 a2 9e 06 8e ad
       -5.7909882e-11 -0.012993962 -4.1007284e-18 -1.614647e-11
000090 30 1f 31 b8 e0 c8 55 be fb 98 de a9 75 cf 3c bc
       -4.2229134e-05 -0.20877409 -9.8853183e-14 -0.011524071
0000a0 64 31 83 bc 04 0b d8 be 0e 60 53 bd d1 4c 8f be
       -0.016014762 -0.42195904 -0.051605277 -0.27988294
0000b0 57 2b 11 b7 53 61 b4 b0 af f0 06 b0 5b db 76 bf
       -8.652764e-06 -1.3124385e-09 -4.909095e-10 -0.9642846
0000c0 aa 4b 7d bc a1 50 ba af 8d e7 ae bd 80 b7 95 bd
       -0.015459934 -3.3890493e-10 -0.085402586 -0.073103905
0000d0 4e 03 96 bc 94 92 10 af 03 b5 4e bb 33 48 dd 3e
       -0.018312123 -1.3148799e-10 -0.0031540997 0.43219146
0000e0 1a c2 86 bf 5b 31 e5 bd 1d 70 21 bf 61 57 29 b8
       -1.0527985 -0.111910544 -0.63061696 -4.0374118e-05
0000f0 dd fe 13 b4 b6 39 03 be 51 dc ec bc 1e 8b 02 bf
       -1.378316e-07 -0.12814984 -0.028913649 -0.50993526
000100 ab 4c 14 bd 78 8c 93 3e b0 1c 6d b0 c6 4b f3 be
       -0.03620593 0.28818107 -8.6260865e-10 -0.47518748
000110 e6 85 da a9 56 57 dd 3d 78 f5 87 ac 7d ac 1d b9
       -9.7043725e-14 0.10807674 -3.8641833e-12 -0.00015036944
000120 65 1a 18 bf ae c8 65 ba ed 53 2a b5 7d 1a fa 3c
       -0.59415275 -0.00087655603 -6.3452063e-07 0.030530209
000130 3b d7 07 bf b3 bb 7d bf 9c c8 5b 40 fc a9 20 be
       -0.5306279 -0.9911453 3.4341192 -0.15689844
000140 2a e2 2d bc 52 40 40 a8 77 19 3a 9d 49 e5 19 bf
       -0.010613004 -1.0672088e-14 -2.463006e-21 -0.60115486
000150 6b 23 0e bf bb 44 0b bc 6b 12 cf b4 2a 98 1a b3
       -0.55522794 -0.008500273 -3.8570155e-07 -3.599431e-08
000160 f5 c5 3d bb 46 c9 0c ae 9e 8f c0 3d a0 09 b1 be
       -0.0028957103 -3.201108e-11 0.09402393 -0.34577656
000170 46 96 1a bf 7e 46 bd ba ba f0 dc be c0 f6 88 ba
       -0.6038555 -0.0014440564 -0.4315241 -0.0010449514
000180 26 b5 57 bb 14 81 0a ac 36 14 a5 a9 58 97 cd a1
       -0.003291437 -1.9682632e-12 -7.330978e-14 -1.3931401e-18
000190 8d d7 8c b4 b1 8e 8e bf 1a 36 5a b8 74 6d c6 3f
       -2.6233866e-07 -1.1137296 -5.2025636e-05 1.5502152
0001a0 8a 5f 99 bd a0 bd 56 bd ac 55 1f b6 1d d5 17 be
       -0.07488926 -0.052426934 -2.3742714e-06 -0.1482739
0001b0 a1 35 57 bb ef ba ef ba a0 d6 20 b0 b9 46 da bc
       -0.0032838362 -0.0018289963 -5.851266e-10 -0.026645051
0001c0 c1 a6 2a b8 eb c6 9a be 7a 29 6e be d6 a2 97 b7
       -4.068646e-05 -0.30229887 -0.2325801 -1.807643e-05
0001d0 b5 41 2c bb b0 04 5a bf 58 cf b4 b4 10 d7 d0 bd
       -0.0026284282 -0.851634 -3.3678475e-07 -0.1019727
0001e0 64 c9 6d be 6e 00 b4 be 12 a3 e6 bd 4f 7a 9e b9
       -0.23221356 -0.35156578 -0.11261572 -0.00030227235
0001f0 8b b6 b3 ae fe fc bf bd 1a 9b 30 be cb 24 08 bf
       -8.172404e-11 -0.09374426 -0.17246667 -0.5318114

act_conv1.weight f4 [4, 128, 1, 1]
000000 4a 75 00 00 76 1a 00 80 ea 5c cd aa 2d bc 00 80
       4.2075e-41 -9.492e-42 -3.6479787e-13 -6.7505e-41
000010 4f b5 00 00 e6 8a 01 80 a6 a3 00 00 66 33 00 80
       6.5041e-41 -1.41663e-40 5.8706e-41 -1.8438e-41
000020 fe b6 9d a8 ae 39 00 80 9e 38 00 00 1f 44 00 00
       -1.7509862e-14 -2.0692e-41 2.031e-41 2.4437e-41
000030 ab 80 fe b8 6b f3 9b 17 20 93 00 80 49 86 78 b9
       -0.0001213563 1.0078088e-24 -5.2779e-41 -0.00023701148
000040 70 0c 01 80 0e b6 00 00 e8 03 d4 a1 3b c6 00 80
       -9.6297e-41 6.5309e-41 -1.4366713e-18 -7.1112e-41
000050 bf a8 02 00 2a 58 01 80 10 90 00 00 98 3f 00 00
       2.44206e-40 -1.23463e-40 5.168e-41 2.2813e-41
000060 83 79 04 00 1a 58 54 02 9b 01 01 80 49 65 00 80
       4.10932e-40 1.5600584e-37 -9.2411e-41 -3.6334e-41
000070 05 13 00 80 e7 30 00 80 20 59 00 00 fb 56 02 80
       -6.823e-42 -1.7543e-41 3.1972e-41 -2.14874e-40
000080 54 e0 00 00 78 93 00 80 0a 50 00 00 63 4b 00 00
       8.0474e-41 -5.2902e-41 2.8713e-41 2.7044e-41
000090 9a 96 01 00 ca 3c 01 00 75 46 36 0b 4a 55 00 80
       1.45861e-40 1.13643e-40 3.510493e-32 -3.0596e-41
0000a0 a6 8d 01 00 af 20 00 00 fe 2f 01 00 8d 21 00 80
       1.4265e-40 1.1725e-41 1.09052e-40 -1.2036e-41
0000b0 bd 57 01 80 6a 86 81 01 79 6f b5 94 b7 c3 05 00
       -1.2331e-40 4.757999e-38 -1.8320298e-26 5.29387e-40
0000c0 58 20 00 80 bc 55 00 80 ca 88 00 00 25 0e 48 0e
       -1.1603e-41 -3.0756e-41 4.907e-41 2.4658714e-30
0000d0 c8 79 01 00 45 c7 00 80 a4 24 00 00 07 12 00 00
       1.35522e-40 -7.1484e-41 1.3144e-41 6.467e-42
0000e0 cd 8d 00 80 37 fb 00 80 85 4f 2f ba 98 5b c6 ba
       -5.0869e-41 -9.0119e-41 -0.00066875695 -0.0015133498
0000f0 e1 0e 00 80 c1 76 01 00 f3 f3 00 00 51 9e 00 80
       -5.338e-42 1.34436e-40 8.7512e-41 -5.6793e-41
000100 9e 0f 0a 80 0d fb a7 b9 90 a0 52 86 ed 88 00 80
       -9.23957e-40 -0.0003203977 -3.9614573e-35 -4.912e-41
000110 80 89 00 00 3a 59 89 b3 14 f5 95 ae 3c 40 00 80
       4.9326e-41 -6.39579e-08 -6.81927e-11 -2.3043e-41
000120 11 cb 00 00 b8 e8 2d 14 d3 23 00 80 7f a4 03 00
       7.2847e-41 8.780164e-27 -1.2851e-41 3.34517e-40
000130 4d c6 00 00 25 68 00 00 ce cd f8 ba 23 7c 00 00
       7.1137e-41 3.736e-41 -0.0018982233 4.4532e-41
000140 a4 f5 33 99 2e ee 98 15 a1 2e a9 a0 94 0d 00 00
       -9.30369e-24 6.176809e-26 -2.866057e-19 4.871e-42
000150 9a 57 ad 8e 9c 11 00 80 0a 88 00 00 75 32 00 00
       -4.273215e-30 -6.317e-42 4.8802e-41 1.81e-41
000160 c4 83 5c ac 6b c4 0c 01 de c5 02 80 2a fa 02 00
       -3.1337025e-12 2.5854862e-38 -2.54652e-40 2.73413e-40
000170 3e 13 01 80 98 a4 01 00 e8 a6 00 80 19 0b 01 00
       -9.8738e-41 1.5088e-40 -5.9875e-41 9.5817e-41
000180 87 30 00 00 f7 e0 00 00 e2 c8 00 00 77 80 3f 92
       1.7408e-41 8.0702e-41 7.2063e-41 -6.042732e-28
000190 52 bc 00 80 98 7e 00 80 1d 8f 01 00 e5 d9 a6 b9
       -6.7557e-41 -4.5413e-41 1.43175e-40 -0.0003182433
0001a0 b1 36 00 00 da 47 00 80 f5 a3 00 00 b5 bf 00 80
       1.962e-41 -2.5775e-41 5.8817e-41 -6.8772e-41
0001b0 29 d2 00 80 39 58 01 00 5f 86 00 80 b2 c1 00 00
       -7.5391e-41 1.23484e-40 -4.8203e-41 6.9485e-41
0001c0 c8 ec 00 80 f9 cf 00 80 08 f6 06 b8 b6 6d 6a 18
       -8.4941e-41 -7.4607e-41 -3.2177224e-05 3.0299181e-24
0001d0 cd 3d 00 80 f6 2f bd 15 9e 7f 01 80 96 46 00 00
       -2.217e-41 7.641216e-26 -1.37616e-40 2.5321e-41
0001e0 3a 67 00 80 35 3e 00 00 b9 c6 04 80 85 9a b5 2e
       -3.7031e-41 2.2316e-41 -4.3863e-40 8.258375e-11
0001f0 94 be 02 22 6f 7e 00 00 be 48 00 00 3a c6 00 80
       1.7719177e-18 4.5356e-41 2.6095e-41 -7.111e-41
000200 60 db 4c 3e 33 fd bf 3e 8e bf 05 3e 69 1e c1 bd
       0.2000556 0.37497863 0.13061354 -0.094296284
000210 55 d6 89 3e 7b dc d4 be 0c 9b 5d 3e 19 e4 8d bc
       0.26921335 -0.41574463 0.21641177 -0.01732068
000220 3a 65 fd 3d 70 df 53 3b 98 cb 47 bd d8 2d 9f 3e
       0.12372823 0.0032329224 -0.048778147 0.31089664
000230 da e7 6c 3e 8a 82 8a 3e 56 82 1b ba 6f 98 1b 3e
       0.2313532 0.27052718 -0.00059322023 0.15194868
000240 d5 bb fa 3b 6a 3a 69 b9 ec ec fe be f1 54 a3 3d
       0.007651786 -0.00022242373 -0.49790132 0.07975186
000250 43 c6 d2 be 30 55 fa bc f6 4e 86 be 43 52 02 3e
       -0.41166887 -0.030558199 -0.26232117 0.12726693
000260 6c 02 a4 3e d5 4a 0a be 71 47 91 3d 3b 4b 59 3e
       0.32033098 -0.13505109 0.070937045 0.21220104
000270 0e fd 04 3f 84 35 44 b8 92 ab 00 be 80 fb 8c be
       0.5194863 -4.677988e-05 -0.12565449 -0.2753563
000280 13 96 bc 37 d0 d5 b1 be f9 66 a6 b6 80 49 1a bb
       2.248123e-05 -0.34733438 -4.959173e-06 -0.0023542345
000290 62 52 64 ba 6e 47 b2 be df 67 ae b5 fc 44 01 be
       -0.0008709786 -0.34820122 -1.2994241e-06 -0.12623972
0002a0 d8 fd a1 bd 15 2c c4 ba 49 88 39 be 8e b9 f4 be
       -0.07909745 -0.0014966751 -0.18118395 -0.47797817
0002b0 d6 2a 15 bc 54 de 7f ac 3b 63 aa ba e2 d0 fd 3e
       -0.009104451 -3.6361096e-12 -0.0012999544 0.49573427
0002c0 c8 4c 07 bf 0d 52 d1 ba 10 9f a0 3e 25 e4 c3 bd
       -0.52851534 -0.0015969888 0.31371355 -0.095649995
0002d0 6d b8 11 bd 56 28 20 39 5d b4 99 3b 7a ed dc 3d
       -0.035576273 0.00015273815 0.0046906904 0.107874826
0002e0 1a 6e 09 3e 89 f3 94 be 5b b6 be be de e4 0b bd
       0.13420907 -0.29092053 -0.372485 -0.03415381
0002f0 a0 3f a0 3b 93 6c 8f 3e d4 76 53 be 54 af 00 3f
       0.004890397 0.28012523 -0.20650798 0.5026753
000300 ba 94 a8 3d a6 2c f2 be 4f e9 76 bc eb b4 ea 3e
       0.08231492 -0.4729969 -0.015070274 0.45841154
000310 93 5e 13 b6 47 54 1c be d6 8a 77 ba e4 b0 02 3d
       -2.1959756e-06 -0.15266524 -0.00094429904 0.031906977
000320 db 62 01 ba 69 bf 7b 3d 2d 69 00 34 cf 90 a9 3e
       -0.000493569 0.06146184 1.1959192e-07 0.33118293
000330 c0 17 06 bf cd 11 9a be 6d a5 5c 3d c6 b8 92 be
       -0.5237999 -0.30091706 0.0538687 -0.28656596
000340 4a 27 84 be 05 95 1c 3a 1c 6d c9 b8 e6 3e d1 be
       -0.25811225 0.00059731334 -9.60475e-05 -0.408683
000350 be 10 75 be 75 67 94 be 6c 46 38 3b 0a 5f 76 ba
       -0.23932168 -0.2898518 0.0028118147 -0.0009398317
000360 88 7e dd be 27 d9 c9 b8 3e 1a 5a be f5 e3 c3 bd
       -0.43260598 -9.624875e-05 -0.21299073 -0.09564964
000370 a5 af 13 bf b1 70 b8 3e 47 c7 b3 3e 4f 78 05 3d
       -0.5768989 0.36023477 0.35112974 0.03258544
000380 68 f8 d0 3d ab 63 2d ba 48 c7 36 ae 77 2f 9b 39
       0.1020363 -0.0006614278 -4.1559006e-11 0.00029599268
000390 0d 58 7a 3d 83 d3 09 bf 52 ff 04 bb ff 70 62 bf
       0.061119128 -0.53838366 -0.0020293784 -0.8845367
0003a0 05 92 a0 3e 3b 15 2a 3e 0d 07 52 bb 17 3f 4e bd
       0.31361404 0.16609661 -0.003204766 -0.050353136
0003b0 14 ab 13 3c 35 6f 8a bd 99 78 31 3b d9 53 9d 3d
       0.009012956 -0.06759492 0.0027079938 0.07682008
0003c0 cc 89 9a be 3f 4c f6 be 7c 30 e8 3b ee dc bd 3b
       -0.30183256 -0.48105046 0.007085858 0.005794159
0003d0 16 c1 90 bb 7f cb 11 be 4b 1c a5 33 2a 59 4c ba
       -0.004417549 -0.14237784 7.688558e-08 -0.0007795269
0003e0 61 6b 2a be 4f 88 d2 3e c6 20 27 bc 43 27 82 3c
       -0.16642524 0.4111962 -0.010200685 0.015887862
0003f0 ff 65 ae b9 3b cf cb 3e 31 4c e9 be ce 95 df be
       -0.0003326386 0.39806542 -0.45565942 -0.4366898

act_conv1.bias f4 [4]
000000 a4 90 47 bb d9 c9 d0 ba da 52 02 be 0a 19 94 be
       -0.0030451203 -0.0015929296 -0.12726918 -0.28925353

act_fc1.weight f4 [81, 324]
000000 04 33 02 00 b3 cc 01 00 74 e3 00 80 cd 4e 00 00
       2.01972e-40 1.65268e-40 -8.1595e-41 2.8268e-41
000010 f6 65 00 80 6e 56 00 80 9e 6a 00 80 ed 91 00 80
       -3.6577e-41 -3.1005e-41 -3.8247e-41 -5.2348e-41
000020 95 19 01 00 c7 be 01 00 62 34 01 00 0e 07 01 80
       1.01013e-40 1.60274e-40 1.10627e-40 -9.4366e-41
000030 3e 8e 01 80 8e ee 00 00 22 87 01 80 e1 11 01 00
       -1.42862e-40 8.5577e-41 -1.40312e-40 9.8249e-41
000040 ee 16 00 80 49 83 01 80 98 8a 00 80 db 0b 01 00
       -8.226e-42 -1.38932e-40 -4.9718e-41 9.6088e-41
000050 04 37 00 80 8b 18 00 80 11 5b 01 00 38 5b 01 00
       -1.9736e-41 -8.804e-42 1.24504e-40 1.24559e-40
000060 2e 47 01 00 ab f4 00 80 da e2 00 00 d2 4a 00 80
       1.1737e-40 -8.777e-41 8.1379e-41 -2.684e-41
000070 14 17 01 00 f6 71 00 00 54 e0 00 00 b6 de 00 00
       1.00114e-40 4.0881e-41 8.0474e-41 7.9894e-41
000080 9a 25 00 00 2e d8 00 80 a0 20 01 80 a4 7e 00 80
       1.3489e-41 -7.755e-41 -1.03539e-40 -4.543e-41
000090 e7 4a 01 80 41 75 01 00 9c 72 00 00 83 cb 00 00
       -1.18705e-40 1.33898e-40 4.1114e-41 7.3006e-41
0000a0 35 f4 00 80 ae ae 00 00 8b 56 01 80 a3 d3 00 80
       -8.7605e-41 6.2663e-41 -1.22881e-40 -7.5921e-41
0000b0 56 94 00 00 82 a2 01 80 63 59 01 00 21 bd 00 00
       5.3213e-41 -1.50132e-40 1.23901e-40 6.7847e-41
0000c0 b4 d5 00 00 05 9a 00 80 82 1c 01 80 b9 f4 00 00
       7.6662e-41 -5.5252e-41 -1.02062e-40 8.779e-41
0000d0 6d 37 00 80 c1 12 00 80 83 0e 00 80 71 7d 00 80
       -1.9883e-41 -6.728e-42 -5.206e-42 -4.5e-41
0000e0 e8 ce 01 80 cf 6c 00 80 d4 c1 00 80 32 02 00 80
       -1.6606e-40 -3.9033e-41 -6.9532e-41 -7.88e-43
0000f0 3b 5a 00 80 a1 73 01 80 86 f1 01 00 33 ea 00 00
       -3.2369e-41 -1.33315e-40 1.78478e-40 8.4015e-41
000100 b2 73 01 00 76 5b 00 80 80 5c 00 00 75 8d 00 80
       1.33339e-40 -3.281e-41 3.3183e-41 -5.0745e-41
000110 af 90 00 00 72 6d 01 00 8c 7e 00 80 7b e7 01 80
       5.1903e-41 1.31097e-40 -4.5396e-41 -1.74875e-40
000120 8d c2 00 80 04 9b 00 80 f7 a0 01 00 4b 1a 00 80
       -6.9792e-41 -5.5609e-41 1.49579e-40 -9.432e-42
000130 fa e3 01 00 41 ed 00 00 ba 1e 00 00 95 ac 01 00
       1.73618e-40 8.511e-41 1.1023e-41 1.53746e-40
000140 b8 aa 01 00 e8 99 30 3d 79 2d c8 3d 8e c7 27 be
       1.53078e-40 0.043115526 0.09774298 -0.16384718
000150 06 e5 08 bd 67 46 31 3e 7c e1 bd 3d 0a 37 4e 3e
       -0.03342154 0.17312013 0.09271523 0.20138183
000160 1a f5 23 bd 37 94 c3 3d aa 02 43 3e 53 e7 e1 3d
       -0.04002867 0.09549754 0.19043985 0.1103045
000170 80 b6 4b bd 35 3e 2b bd 2d 79 99 3e 4b 12 2f be
       -0.049734592 -0.041807372 0.29975262 -0.17096822
000180 44 9e e4 3d c3 66 65 3d 5c b6 78 bd 2f 92 1b 3c
       0.11162999 0.056006204 -0.060720786 0.009495302
000190 59 26 01 3e 7b 55 a1 3d 25 da 30 3a d8 24 df 3d
       0.12612285 0.07877632 0.0006746373 0.10895699
0001a0 90 e2 9f bd 44 0e 58 3e 83 a4 fa 3d d5 5d 1d 3e
       -0.07806885 0.21099192 0.12238409 0.15367825
0001b0 cf 80 a3 bd 9c 12 8e 3d 7c 33 01 be a4 2d ec 3d
       -0.07983553 0.06937143 -0.12617296 0.11532143
0001c0 35 de b6 3d fa 09 4d 3d 19 1e 2f bd a4 a4 50 be
       0.089291014 0.050058343 -0.042753313 -0.20375305
0001d0 a4 87 76 3d e3 09 03 3d 95 97 24 be 4a 78 a1 bd
       0.06018795 0.03199185 -0.16073449 -0.078842714
0001e0 09 37 41 be e5 ca ae 3d 1a e1 a1 3c 6a 7f dd 3d
       -0.1886865 0.08534793 0.019760657 0.10815318
0001f0 57 4a 3f 3e e0 2f 26 3a 0b af 47 3e e9 81 37 bd
       0.18680702 0.00063395314 0.19500367 -0.044801626
000200 93 b5 a9 3c 0a 7a b7 3e 64 15 f3 bd e2 71 42 3d
       0.020716464 0.35835296 -0.11869314 0.04747189
000210 bd ee 46 3d d9 c9 ff ba f6 76 88 3c d0 eb a4 3e
       0.048567522 -0.0019515111 0.016658287 0.3221116
000220 76 71 8d bb e9 55 3a 3e 88 7c 81 3e cf 4a 50 bd
       -0.004316504 0.18196835 0.25290322 -0.050852593
000230 16 f1 af bd 57 8c db 3d 9b 4c cc bd b9 eb a9 bd
       -0.08590905 0.10720127 -0.09975549 -0.08296914
000240 48 33 fa 3e d0 ff 8e 3d 03 65 f6 3c eb 83 3e be
       0.4886725 0.06982386 0.030077463 -0.1860501
000250 bf 15 d1 bd 6e bd e8 3d ae aa 16 3e 3b 94 44 3e
       -0.10209226 0.11364256 0.14713547 0.1919717
000260 a4 e6 ab 3d bd 15 bf bf 46 6c 45 3f e0 81 fb 3e
       0.083936006 -1.4928509 0.7711834 0.49122524
000270 b8 51 2f 3e b1 6d 98 3d aa 92 cc 3c 96 2f e5 bc
       0.17121017 0.07442797 0.024972279 -0.027976792
000280 82 30 99 3e 57 81 de 3c 7e 19 3f 9f bd fd 85 1f
       0.2991982 0.027161283 -4.046691e-20 5.6747466e-20
000290 76 a1 5b 9f 3c 7f 5f 1f 51 7f 98 a0 c4 65 44 9f
       -4.650861e-20 4.7327333e-20 -2.5834053e-19 -4.1588793e-20
0002a0 7c b2 76 1f e2 15 bb 1e 3b fc 07 9f 51 33 b0 a0
       5.2240165e-20 1.9808446e-20 -2.8796002e-20 -2.9849518e-19
0002b0 1c 73 6d 1f ec 83 94 1f 73 51 8d 1f 05 04 b9 20
       5.0281918e-20 6.2898685e-20 5.985057e-20 3.134288e-19
0002c0 ea f1 2c 1f 37 7e 82 9b 0c 6a dc 1d 1f 3c ae 1e
       3.6622523e-20 -2.158826e-22 5.8343165e-21 1.8447832e-20
0002d0 8b 16 1d a1 32 95 59 20 63 7e 9c 1f 99 22 ac 9e
       -5.3223504e-19 1.842998e-19 6.627766e-20 -1.8225518e-20
0002e0 e0 a1 06 a0 36 2a 1b 1f 8e 91 1c 9f 48 3f b2 1f
       -1.1403801e-19 3.2857443e-20 -3.3154685e-20 7.549062e-20
0002f0 ca 56 3a 9e f1 38 8f 1f 7a 33 5a 1e c1 ed 89 9f
       -9.8647056e-21 6.065706e-20 1.1551469e-20 -5.841509e-20
000300 30 e8 34 9f 6a 89 1b 1f a8 a9 f7 1e 5e bf 4b 9e
       -3.8308544e-20 3.2936193e-20 2.622231e-20 -1.0786304e-20
000310 05 98 35 20 9e a0 18 1f 18 bf 32 20 39 cb 49 1e
       1.5381595e-19 3.232011e-20 1.5140414e-19 1.0682877e-20
000320 0a 95 cc 9f b4 3f 07 9e a8 a5 49 1f e2 61 8b 9f
       -8.6643925e-20 -7.160014e-21 4.2700433e-20 -5.9030723e-20
000330 51 0c 29 1f 96 aa 23 9f aa d3 40 20 70 d8 c6 9f
       3.579733e-20 -3.4657698e-20 1.6333066e-19 -8.421433e-20
000340 a5 f3 08 2f 8e 82 56 a9 db 93 33 20 68 8b 54 1f
       1.2455688e-10 -4.7630784e-14 1.5210811e-19 4.500806e-20
000350 eb e1 f2 1e 41 0e 86 9f f3 9b 47 a0 8b 48 cd 1c
       2.5716184e-20 -5.677479e-20 -1.6907555e-19 1.3584514e-21
000360 f5 49 11 20 ad 3b 80 b0 0f fa a3 20 0c 3a d7 9e
       1.2306448e-19 -9.330187e-10 2.777875e-19 -2.2788018e-20
000370 77 df 7f 1f 8b 16 d1 1d cb c3 eb 9f ff 36 c7 9f
       5.4183196e-20 5.534515e-21 -9.9850284e-20 -8.437076e-20
000380 d9 09 47 1f ac fb 11 20 26 23 7a a1 ea d4 0c 20
       4.2148035e-20 1.2365249e-19 -8.4749813e-19 1.1928909e-19
000390 df e6 b3 1f a0 48 c2 1f f1 19 6c 9f 2e 75 df 22
       7.619139e-20 8.2282344e-20 -4.9996402e-20 6.056834e-18
0003a0 b7 0f 1b 1f f8 ca a1 1f ff f7 46 9f 13 01 fa 9e
       3.2835526e-20 6.8521936e-20 -4.213327e-20 -2.6470224e-20
0003b0 47 27 6b 1f de ab a1 1f 44 5b 0a 20 2d 4e df 9e
       4.9795675e-20 6.847048e-20 1.1719252e-19 -2.3643376e-20
0003c0 3e 8b 57 1f c7 6c 4b 1e 04 c4 99 9d 37 dc 63 2e
       4.56432e-20 1.0769225e-20 -4.070144e-21 5.1809414e-11
0003d0 a1 aa ac 37 fc 17 2d 39 bd cc 45 38 88 1d 53 38
       2.0583453e-05 0.000165075 4.7159137e-05 5.0333823e-05
0003e0 1d f9 98 38 73 cc 41 38 cd 2b 52 37 fc 3b 4a a9
       7.294326e-05 4.6205194e-05 1.2527174e-05 -4.490504e-14
0003f0 0a 37 3d 37 87 24 25 3b c1 26 92 3b c6 99 6b 3b
       1.1278093e-05 0.0025198774 0.004460186 0.003594981

act_fc1.bias f4 [81]
000000 0c 62 0d bf df 58 87 be d4 cb b4 be 4d 97 31 bd
       -0.5522773 -0.2643499 -0.3531176 -0.043357182
000010 55 0e c3 be 83 fb 04 be a2 62 c9 be 49 25 9c be
       -0.38096872 -0.12986569 -0.39333063 -0.30497196
000020 79 fb 02 bf 77 ec 75 be 78 4b 0a bf aa de 7f bc
       -0.51164967 -0.24015985 -0.54021406 -0.015617052
000030 2b d6 11 3e f5 09 5d 3e ba 29 72 3d 57 5e c6 bd
       0.14241855 0.2158583 0.059121825 -0.09685963
000040 a8 76 1c bf f3 c1 99 be b8 d0 f6 be 9e aa 88 bd
       -0.61118555 -0.30030784 -0.48206115 -0.06673168
000050 14 0d 9c be 42 4d b8 3e 21 76 35 3f 37 b7 b6 3e
       -0.30478728 0.35996443 0.70883375 0.35686657
000060 b9 53 8c be 46 58 06 bc 20 42 c7 be cd 73 2a be
       -0.27407625 -0.008199757 -0.38917637 -0.16645737
000070 9a f9 e7 3d 20 3d 75 3e 7b 21 08 3f 6b a2 31 3f
       0.113269046 0.23949099 0.5317609 0.69388455
000080 de 1c 09 3f 13 7a 7f 3e b6 5e 9c 3d a0 68 20 be
       0.5355967 0.24948911 0.07635252 -0.15664911
000090 1c 97 c5 be c1 ff 66 3e a8 ce 2d 3f c1 16 39 3f
       -0.3859185 0.225585 0.6789346 0.72300345
0000a0 71 32 44 3f 5c 66 31 3f a3 9b 33 3f 9f d5 43 3e
       0.7663947 0.69296813 0.7015936 0.19124459
0000b0 b5 d1 c4 be 57 ed d6 bd 11 c1 b1 3d 3a 76 6d 3e
       -0.38441244 -0.10494488 0.086794026 0.23189631
0000c0 88 ca ff 3e 2b 63 33 3f 4b 39 09 3f 3e 26 a3 3e
       0.49959207 0.70073193 0.5360305 0.31865114
0000d0 9d 1a 0f 3e 4e 39 1f be 23 7c cf be 7c 94 47 bd
       0.13974996 -0.15549204 -0.40524396 -0.04872559
0000e0 52 8e 9d be 32 28 92 3e bd 48 2d 3f 50 d1 7f 3e
       -0.30772644 0.28546292 0.67689115 0.2498219
0000f0 0b 58 94 be aa ae 8b bd 80 6b d0 be 90 7b 9b be
       -0.2897342 -0.06820424 -0.40707016 -0.30367708
000100 98 65 dd be 9b 0f 9b bd af f9 06 3e fa ed 37 3e
       -0.43241572 -0.07571336 0.13181184 0.17961875
000110 06 a4 c7 3d a0 4f 19 bc e3 97 1c bf fb 16 b0 be
       0.09748082 -0.009357363 -0.6116926 -0.34392533
000120 cd 97 21 bf ad ae 45 be 81 f5 c1 be 3b 80 1c be
       -0.63122255 -0.19304915 -0.37882617 -0.15283291
000130 6b 6c cb be fb ce 1a be 31 71 c1 be 8a 05 96 be
       -0.39731154 -0.1511802 -0.3778167 -0.293011
000140 e1 6b 22 bf
       -0.6344586
